checkpoints/CNN_fold_1.pth (torch, 225380 bytes, 8 tensors)

conv1.weight f4 [16, 4, 3]
0.33484975 0.29437786 -0.12670143 0.066331685 0.12517513 -0.023150435 -0.2168154 -0.14921293
0.11778093 0.064761855 0.20502898 -0.3147392 0.2566139 -0.20827158 0.29368427 -0.4667172
-0.26098695 -0.2281728 0.1137215 -0.25037962 0.085963644 0.18730746 0.034693204 0.16165242
0.049573135 -0.14366372 -0.07960424 0.1454912 0.26825777 0.2251906 -0.20150872 0.20044474
-0.08548329 0.11809019 -0.11372177 -0.0055795414 0.26757142 -0.26672724 -0.052924935 -0.4185024
-0.09532218 -0.05110569 -0.23328595 0.073323295 0.2896946 -0.0062914914 0.050536957 -0.0028327517
0.25338665 0.05401359 -0.16963758 -0.06608931 0.16293256 -0.008521461 -0.1380146 0.2099905
0.23737976 0.056830183 -0.04885483 -0.24725468 0.3482576 0.2804551 0.31073147 -0.35710284
-0.3203581 -0.05829885 -0.23230843 0.1727441 0.18660456 0.27052042 -0.21852516 -0.1485429
0.28261054 0.29317722 0.18712626 0.0629275 0.441329 0.30720413 0.41340142 0.094008304
-0.058939964 0.17233878 -0.17582609 0.17630903 0.012402231 -0.29988083 -0.27477342 0.30215138
0.31676117 -0.12470735 -0.07297658 -0.09648715 -0.21079592 -0.10622196 -0.34419936 -0.042382296
0.2310548 0.06325845 0.21067643 0.17490478 -0.016986594 -0.013901994 0.32311705 -0.20390993
0.13500708 -0.15034036 0.14143375 -0.12783755 -0.2940652 -0.11147064 0.2527642 0.2781791
0.26674542 -0.0797585 -0.21971998 -0.2844078 -0.09632169 -0.011439281 -0.0635296 -0.016006649
0.053368576 -0.33082446 -0.3823638 0.06549317 -0.07028318 -0.2610577 -0.21243656 -0.06887658
0.030737456 0.042963438 -0.1694364 0.2704002 -0.23598711 0.07321137 0.21424359 0.009302801
0.042516146 0.12644951 -0.31115544 -0.21871547 -0.039488696 -0.036201935 0.20431264 -0.08034377
0.039811164 0.012268585 0.2429266 -0.20993154 0.03712629 0.25812894 0.18831605 0.05274991
0.091942586 -0.012070903 0.1633045 -0.08664708 -0.03703837 -0.20625427 0.27721345 0.16291237
0.0063164923 -0.07060588 0.20405021 -0.11668257 -0.14328809 0.02723243 -0.21847469 0.15184474
-0.42040166 -0.36638576 -0.38083094 -0.37846613 -0.060465075 -0.39958024 -0.14236403 -0.27713007
0.2401073 -0.051491864 -0.09603367 0.033775903 -0.098746255 -0.030884512 0.18483108 -0.1831263
-0.3757743 0.12913616 -0.2646648 0.027909786 0.31013694 -0.16345732 0.06779742 0.12123978
00000000: 6d71 ab3e b2b8 963e 05be 01be e8d8 873d
00000010: e92d 003e fba5 bdbc db04 5ebe 46cb 18be
00000020: 2137 f13d dda1 843d 1ef3 513e 7f25 a1be
00000030: e662 833e 2545 55be c95d 963e 8ff5 eebe
00000040: 15a0 85be 21a6 69be d1e6 e83d c231 80be
00000050: b50d b03d 87cd 3f3e 761a 0e3d 3688 253e
00000060: 330d 4b3d 951c 13be 8c07 a3bd a5fb 143e
00000070: 1559 893e 5d98 663e 4d58 4ebe 6341 4d3e
00000080: dd11 afbd 45d9 f13d f6e6 e8bd 96d4 b6bb
00000090: 1fff 883e 7990 88be d1c7 58bd f245 d6be
000000a0: 4638 c3bd 3354 51bd 83e2 6ebe 862a 963d
000000b0: da52 943e db28 cebb d7ff 4e3d b0a5 39bb
000000c0: e5bb 813e 5b3d 5d3d 79b5 2dbe d559 87bd
000000d0: cbd7 263e 999d 0bbc b353 0dbe c007 573e
000000e0: ae13 733e c4c6 683d 011c 48bd 5530 7dbe
000000f0: d24e b23e d097 8f3e 3218 9f3e 2fd6 b6be
00000100: fa05 a4be c6ca 6ebd 43e2 6dbe d4e3 303e
00000110: 4415 3f3e a781 8a3e 0fc5 5fbe a11b 18be
00000120: 54b2 903e 531b 963e 079e 3f3e 22e0 803d
00000130: e0f5 e13e dc49 9d3e 5aa9 d33e 6d87 c03d
00000140: 086b 71bd 9479 303e c10b 34be 5b8a 343e
00000150: ba32 4b3c fb89 99be 1aaf 8cbe 96b3 9a3e
00000160: 852e a23e 9166 ffbd bf74 95bd 0e9b c5bd
00000170: e3da 57be e68a d9bd e63a b0be 0f99 2dbd
00000180: a199 6c3e a58d 813d 90bb 573e 3d1a 333e
00000190: 7827 8bbc 30c5 63bc 996f a53e c4cd 50be
000001a0: 4c3f 0a3e d3f2 19be 02d4 103e d9e7 02be
000001b0: b78f 96be b84a e4bd 4f6a 813e 7e6d 8e3e
000001c0: db92 883e 6d58 a3bd 46fe 60be e69d 91be
000001d0: 4e44 c5bd d26b 3bbc cf1b 82bd 6020 83bc
000001e0: 0299 5a3d d361 a9be 30c5 c3be 4821 863d
000001f0: a1f0 8fbd 5ba9 85be f888 59be 2a0f 8dbd
00000200: 1ecd fb3c 6efa 2f3d bc80 2dbe e571 8a3e
00000210: 9ba6 71be d8ef 953d ac62 5b3e c76a 183c
00000220: 6925 2e3d fb7b 013e c44f 9fbe f3f6 5fbe
00000230: e6be 21bd 7b48 14bd 5537 513e 468b a4bd
00000240: 0811 233d 2d02 493c c0c1 783e 4bf8 56be
00000250: bd11 183d 7a29 843e ecd5 403e 4a10 583d
00000260: 654c bc3d 09c5 45bc 4b39 273e 0674 b1bd
00000270: 8cb5 17bd 5234 53be ecee 8d3e 80d2 263e
00000280: 94fa ce3b d199 90bd 8af2 503e 45f7 eebd
00000290: 1dba 12be 8c16 df3c d4b7 5fbe 307d 1b3e
000002a0: e33e d7be ea96 bbbe 46fc c2be 50c6 c1be
000002b0: 3aaa 77bd c895 ccbe e0c7 11be fee3 8dbe
000002c0: b0de 753e 22e9 52bd 4dad c4bd 9a58 0a3d
000002d0: 7a3b cabd 8401 fdbc 5c44 3d3e 7685 3bbe
000002e0: 7d65 c0be 453c 043e 2582 87be 10a3 e43c
000002f0: 45ca 9e3e 5b61 27be 60d9 8a3d 904c f83d

conv1.bias f4 [16]
-0.030444708 -0.14754118 0.01004132 0.00327001 -0.22479889 -0.1279461 -0.06073662 -0.13736844
0.27575856 0.04369249 -0.08323037 0.0005310814 0.009838475 0.024746392 0.07118953 -0.0017976367
00000000: 2e67 f9bc 0915 17be 5984 243c aa4d 563b
00000010: ae31 66be 4d04 03be f6c6 78bd 50aa 0cbe
00000020: 3a30 8d3e e5f6 323d af74 aabd 4538 0b3a
00000030: 8e31 213c f2b8 ca3c d1cb 913d ae9e ebba

conv2.weight f4 [32, 16, 3]
-0.064843304 -0.016496452 -0.37552193 -0.07347914 -0.15046081 -0.012530774 -0.011959087 0.16695836
0.19142409 -0.20748578 -0.040784266 0.11383426 0.11938374 -0.08958492 -0.17199135 -0.24297293
-0.24392469 -0.35179526 0.19495027 -0.08568367 -0.048140787 0.07259495 0.064069934 0.10294719
0.019105017 0.13973643 -0.15171312 -0.042471256 0.23766217 0.23382041 -0.111918956 -0.004931579
-0.033833943 -0.040507022 0.05304482 -0.02498433 0.13172545 -0.09358973 -0.14599532 -0.007369582
-0.17412728 0.10393177 -0.08654802 -0.05328222 0.095477246 -0.08855676 0.030968212 0.022186654
-0.067577966 0.19359875 0.09255744 -0.03316683 -0.122883536 -0.16403191 -0.042527113 0.017400168
-0.14122899 -0.20006764 -0.21313997 -0.25674337 0.04637065 -0.021861656 0.21294916 -0.16365302
0.028440917 -0.11395764 0.04295816 -0.0106973015 -0.20016564 0.055327635 0.09619903 0.0074988436
0.0927343 0.065252 0.11655708 0.020745395 0.097491786 0.18596515 -0.024618002 -0.20470351
0.034893632 0.08830398 -0.037324008 -0.01817681 -0.15295231 -0.05831563 0.0026969626 -0.0039903754
0.06329737 0.1270005 0.1216211 0.056613375 -0.104971364 -0.031933304 -0.11722376 -0.11726035
-0.061785042 -0.06450165 -0.035494316 0.24325188 -0.013751134 0.2238369 -0.13665432 0.046064045
-0.067726806 0.05392294 0.2590871 0.0864092 -0.098127834 -0.032525726 -0.044466197 0.15205944
0.19735557 -0.016630195 -0.17729536 0.032107767 -0.15639758 0.059928752 0.09170697 -0.19042473
0.11464567 -0.030299978 -0.09257314 -0.22753295 0.06765009 -0.096448496 -0.03322614 0.015211514
-0.07523148 -0.18818878 0.14327897 -0.020721477 0.16850966 0.0015923788 -0.001994229 0.117474265
0.13923657 -0.0037337504 0.16213773 -0.028016478 -0.06631946 -0.007866189 -0.070549525 -0.0064316103
0.0929429 0.07855273 0.14175756 0.019859422 -0.10014511 0.06462335 0.041077882 -0.04400477
-0.10501636 0.024406157 -0.1408756 0.08385585 0.07215102 -0.13658918 -0.13778436 -0.09441719
0.03298222 -0.037572473 0.043742716 -0.112106636 0.10777146 -0.0074940566 -0.015411913 -0.102628656
-0.032886907 -0.066260025 -0.097822115 0.057714537 0.15721346 0.032122698 -0.14773722 0.044493318
-0.12689905 0.029146567 0.14873222 -0.08072155 -0.116297 -0.15596916 -0.066758424 -0.026143942
0.10624663 -0.04713925 -0.1521521 -0.09715913 -0.22270025 0.05819117 0.11879182 -0.06173486
-0.10598913 -0.08378819 -0.04782962 -0.13645086 -0.08218415 -0.098255664 -0.042123303 -0.060423706
0.039999295 0.123335004 -0.10099861 -0.040969677 -0.07141081 0.047002062 0.0131034115 -0.050707884
-0.042948738 -0.07803638 -0.029034015 0.14532644 0.1441741 -0.27398425 -0.1431203 -0.051904105
0.14909276 0.07755459 0.07666804 0.009797478 -0.048763704 0.1621338 0.034522243 -0.09199161
-0.013509897 -0.16326684 0.13363105 0.0071572 0.08762854 0.018111737 0.08056023 0.10051754
-0.024968425 0.09901841 -0.042796373 -0.23847233 -0.19921751 0.16743997 -0.12135369 0.04681542
0.07638666 0.16179928 -0.058289647 -0.073683776 0.061166987 -0.009975999 -0.053509127 -0.055558503
-0.03463163 0.07211888 -0.13457781 -0.00025113337 0.12630783 -0.21827698 0.03547057 0.02925878
00000000: 91cc 84bd 9123 87bc 6944 c0be 3b7c 96bd
00000010: 6612 1abe e04d 4dbc 0cf0 43bc 22f7 2a3e
00000020: ad04 443e 2777 54be 670d 27bd f021 e93d
00000030: 767f f43d 4c78 b7bd 801e 30be e5cd 78be
00000040: 65c7 79be 821e b4be 0ba1 473e ec7a afbd
00000050: 462f 45bd a9ac 943d 1937 833d fad5 d23d
00000060: 2082 9c3c 1117 0f3e af5a 1bbe 57f6 2dbd
00000070: b65d 733e 9e6e 6f3e c435 e5bd 1599 a1bb
00000080: 7695 0abd b1ea 25bd 8645 593d f0ab ccbc
00000090: 09e3 063e f9ab bfbd cc7f 15be 897c f1bb
000000a0: 6c4e 32be 2eda d43d 1740 b1bd 753e 5abd
000000b0: 9389 c33d 3f5d b5bd 0cb1 fd3c c9c0 b53c
000000c0: 5166 8abd c03e 463e c18e bd3d f1d9 07bd
000000d0: 5daa fbbd fbf7 27be e930 2ebd cc8a 8e3c
000000e0: 559e 10be 88de 4cbe 5d41 5abe de73 83be
000000f0: 27ef 3d3d 3717 b3bc 580f 5a3e a894 27be
00000100: edfc e83c a062 e9bd e5f4 2f3d bc43 2fbc
00000110: 39f8 4cbe 3b9f 623d ff03 c53d dcb8 f53b
00000120: 7beb bd3d d7a2 853d 7ab5 ee3d 3ff2 a93c
00000130: c6a9 c73d a66d 3e3e b1ab c9bc cc9d 51be
00000140: a0ec 0e3d b8d8 b43d 0fe1 18bd 89e7 94bc
00000150: 889f 1cbe 5fdc 6ebd 86bf 303b b2c1 82bb
00000160: 0da2 813d 6b0c 023e 7c14 f93d 6de3 673d
00000170: 3afb d6bd 7fcc 02bd 0313 f0bd 3226 f0bd
00000180: 5012 7dbd 7119 84bd 7d62 11bd 0517 793e
00000190: 704c 61bc 8035 653e 1cef 0bbe a7ad 3c3d
000001a0: 5ab4 8abd 4dde 5c3d 10a7 843e 4ff7 b03d
000001b0: 3ff7 c8bd b239 05bd 3022 36bd 78b5 1b3e
000001c0: 9417 4a3e 0c3c 88bc ea8c 35be 6f83 033d
000001d0: b026 20be da77 753d ddd0 bb3d b3fe 42be
000001e0: 59cb ea3d a937 f8bc fd96 bdbd 66fe 68be
000001f0: 218c 8a3d ca86 c5bd 2218 08bd b739 793c
00000200: f612 9abd 8fb4 40be b9b7 123e 16c0 a9bc
00000210: cc8d 2c3e 5eb7 d03a 9cb1 02bb 5996 f03d
00000220: 0894 0e3e f0b1 74bb 6f07 263e d082 e5bc
00000230: 7fd2 87bd 30e1 00bc 457c 90bd 42c0 d2bb
00000240: d958 be3d 41e0 a03d e528 113e 3ab0 a23c
00000250: e118 cdbd 3f59 843d 4841 283d 593e 34bd
00000260: d112 d7bd 6cef c73c b141 10be 9ebc ab3d
00000270: eac3 933d 09de 0bbe 5817 0dbe cd5d c1bd
00000280: 5d18 073d 98e5 19bd 902b 333d 2a98 e5bd
00000290: 49b7 dc3d b490 f5bb 4082 7cbc f92e d2bd
000002a0: 6cb4 06bd 56b3 87bd f656 c8bd 1466 6c3d
000002b0: 91fc 203e 1793 033d 6d48 17be a03e 363d
000002c0: d3f1 01be c8c4 ee3c 424d 183e 5751 a5bd
000002d0: 1f2d eebd 61b6 1fbe a4b8 88bd d22b d6bc
000002e0: d597 d93d 1615 41bd c3cd 1bbe 5efb c6bd
000002f0: 890b 64be dd59 6e3d 2049 f33d b1dd 7cbd
00000300: d410 d9bd 2499 abbd fee8 43bd c6b9 0bbe
00000310: 2a50 a8bd 443a c9bd 7c89 2cbd d97e 77bd
00000320: 4dd6 233d 1097 fc3d 5cd8 cebd d2cf 27bd
00000330: d53f 92bd 3c85 403d b1af 563c 12b3 4fbd
00000340: 04eb 2fbd 8ad1 9fbd bed8 edbc 74d0 143e
00000350: 60a2 133e aa47 8cbe 218e 12be 6699 54bd
00000360: c6ab 183e f1d4 9e3d 2204 9d3d 9a85 203c
00000370: 73bc 47bd 6706 263e 3267 0d3d 1966 bcbd
00000380: 9d58 5dbc 6c2f 27be 94d6 083e f286 ea3b
00000390: 9876 b33d 115f 943c c3fc a43d 24dc cd3d
000003a0: 958a ccbc 2aca ca3d 404b 2fbd 1732 74be
000003b0: adff 4bbe 6275 2b3e 4988 f8bd 87c1 3f3d
000003c0: 9c70 9c3d b6ae 253e 20c1 6ebd 85e7 96bd
000003d0: 3c8a 7a3d 5f72 23bc 632c 5bbd 5091 63bd
000003e0: e5d9 0dbd 10b3 933d c4ce 09be 8daa 83b9
000003f0: d756 013e 0084 5fbe 9749 113d 1cb0 ef3c

conv2.bias f4 [32]
0.18221399 -0.09016904 -0.1860548 -0.04011606 -0.005308398 0.07222781 -0.18171103 -0.014785629
-0.19521724 -0.1656496 -0.07694603 0.1727289 -0.14797725 0.19551986 0.052095942 0.27269307
-0.14772508 -0.17568702 -0.131386 -0.27260977 -0.07624974 0.033373196 -0.061526433 -0.15977064
0.045250215 0.25997108 -0.020493388 0.30518803 0.09926011 0.043279905 0.26083538 -0.008897865
00000000: 4e96 3a3e 8caa b8bd 2685 3ebe bd50 24bd
00000010: 12f2 adbb 2dec 933d 7512 3abe 6c3f 72bc
00000020: 07e7 47be 0ca0 29be e195 9dbd d8df 303e
00000030: 5987 17be 5c36 483e 8e62 553d 6d9e 8b3e
00000040: 3e45 17be 4ce7 33be 0d8a 06be 8293 8bbe
00000050: d328 9cbd 55b2 083d 2403 7cbd ea9a 23be
00000060: 4a58 393d ee1a 853e c0e1 a7bc 9b41 9c3e
00000070: e248 cb3d 4546 313d 378c 853e 5ac8 11bc

fc1.weight f4 [128, 416]
0.04914511 -0.22418733 -0.20674537 -0.118865065 0.027779233 0.06460059 -0.02530012 0.059774265
-0.074304976 -0.42138278 0.05735212 0.057141688 -0.031438705 -0.056903232 -0.06355814 0.05268891
0.07663207 0.07051739 0.0053933007 0.008062983 -0.018580966 -0.0056580985 0.055847023 0.021585353
0.16684665 0.21341717 -0.06898035 -0.0697005 -0.033194825 0.056327567 0.038742367 0.036431197
0.043109298 -0.06907993 -0.040267613 -0.08240282 0.04726307 -0.014045478 -0.006221387 -0.0051900498
0.05211671 -0.00017001832 -0.019622771 -0.011262219 -0.07878635 0.04893808 0.028305296 -0.03250625
0.060238115 -0.053988606 0.015885524 0.014536375 -0.3144198 0.023719406 0.062026665 0.026427386
0.02915938 -0.001439429 0.0013333152 -0.11927574 -0.019123014 0.06777414 0.059949193 -0.23713647
-0.1096833 -0.3184376 0.11849596 0.040048208 0.031129235 0.019565407 -0.055039812 -0.045303438
-0.10851497 -0.037776347 0.08695186 0.024573494 -0.38564435 -0.25035605 -0.06152809 0.01927021
0.118711114 0.09816096 0.11192808 -0.019154465 -0.056475382 -0.032804254 -0.087802716 0.044273812
0.114512436 0.022121236 0.06182896 0.043615248 -0.049950242 -0.07035117 0.049948193 0.02255271
0.007372836 -0.06800257 -0.16496955 -0.11820139 -0.14963327 0.10791068 0.116453744 0.0656329
-0.0374272 0.06587274 0.113760225 0.06611547 0.020615678 0.031494997 -0.09683088 -0.040393375
-0.063477784 0.0339452 0.08357641 0.10896138 0.03227824 -0.057964727 0.07018191 0.09770143
0.07025258 0.04447002 -0.055207208 -0.03396228 -0.05817243 -0.16566171 0.052831847 0.011353858
0.016414145 0.040094804 -0.08196294 -0.06043266 -0.16332833 -0.0669492 -0.0771461 -0.074777834
-0.15391637 -0.16782366 -0.055878468 -0.17845707 -0.08146322 0.050245322 0.090678126 0.013479403
-0.12635364 -0.069433324 -0.14548765 -0.07696526 0.03571239 -0.03157348 -3.418816e-05 0.050171424
-0.2948393 0.077226184 0.034461964 0.007337621 -0.15639399 -0.055999193 0.057946343 -0.0032222762
-0.030111006 0.01848871 -0.14084561 -0.0656873 -0.15010644 -0.029493228 0.07011924 -0.050308384
-0.13457236 -0.27814662 0.034035794 0.07023997 0.037855126 0.07890151 -0.023453837 -0.009335281
-0.093248285 -0.009456037 0.038708005 0.10168351 -0.24476753 -0.3161632 -0.047481846 0.016012795
0.057279304 0.04323238 0.11500664 0.04677442 0.061373528 -0.04094018 -0.0232306 0.07487861
0.030356988 0.07096023 -0.17426625 -0.28551748 0.053211134 0.050315212 0.06680149 0.028335067
0.023476511 -0.019748332 -0.10759592 -0.09401253 0.02821568 0.10198109 -0.525381 -0.21429613
-0.043619256 -0.012309953 0.052677933 0.09297295 0.030413201 -0.03706091 -0.12354202 -0.1282121
-0.087278046 -0.025270635 0.0873278 0.11032149 -0.0005329862 0.008043119 -0.061541658 -0.070047766
0.003863591 -0.03550289 -0.034674015 -0.12565637 -0.14767525 -0.10050922 -0.12553659 0.120006904
0.12247788 0.11638581 -0.02160352 -0.009501444 0.0786033 0.0068794624 -0.026072793 -0.02694835
0.03820982 -0.022670615 -0.04928701 0.022877725 0.015004588 -0.011654494 -0.011746845 -0.13448945
0.050550323 0.07368866 -0.0064683245 -0.057619896 -0.01117213 -0.048246905 -0.09619405 -0.015493385
00000000: 624c 493d 5d91 65be 0fb5 53be 876f f3bd
00000010: 4691 e33c 504d 843d 3242 cfbc dcd5 743d
00000020: 352d 98bd 7cbf d7be 0eea 6a3d 670d 6a3d
00000030: dfc5 00bd 5d13 69bd c52a 82bd 54d0 573d
00000040: 46f1 9c3d 6c6b 903d 49ba b03b 9a1a 043c
00000050: 1c37 98bc 9267 b9bb d9bf 643d c4d3 b03c
00000060: d9d9 2a3e 088a 5a3e 9245 8dbd 23bf 8ebd
00000070: 4cf7 07bd bcb7 663d 51b0 1e3d e138 153d
00000080: 6093 303d c779 8dbd a7ef 24bd cfc2 a8bd
00000090: ec96 413d 011f 66bc c7dc cbbb 4b11 aabb
000000a0: 5578 553d f246 32b9 efbf a0bc 2c85 38bc
000000b0: bd5a a1bd 4c73 483d 82e0 e73c 4625 05bd
000000c0: 3ebc 763d 2823 5dbd 5c22 823c fa29 6e3c
000000d0: a2fb a0be 334f c23c ac0f 7e3d 3f7e d83c
000000e0: a7df ee3c 39ab bcba a2c2 ae3a d746 f4bd
000000f0: dea7 9cbc 2bcd 8a3d 498d 753d e7d3 72be
00000100: a3a1 e0bd 410a a3be 03ae f23d 9709 243d
00000110: bd02 ff3c a247 a03c 6d71 61bd 1990 39bd
00000120: 193d debd 5fbb 1abd d113 b23d 5a4e c93c
00000130: 2d73 c5be ab2e 80be e104 7cbd 8fdc 9d3c
00000140: d01e f33d 9d08 c93d 8d3a e53d d3e9 9cbc
00000150: bb52 67bd c15d 06bd e9d1 b3bd 7558 353d
00000160: 7f85 ea3d 9837 b53c 5d40 7d3d e7a5 323d
00000170: a098 4cbd 4614 90bd 7a96 4c3d 76c0 b83c
00000180: d597 f13b ee44 8bbd c7ed 28be 9213 f2bd
00000190: 7739 19be 4600 dd3d 4d7f ee3d 8b6a 863d
000001a0: 434d 19bd 49e8 863d 1ffb e83d 8c67 873d
000001b0: 36e2 a83c e600 013d 454f c6bd 8673 25bd
000001c0: a400 82bd 1f0a 0b3d 1c2a ab3d 2527 df3d
000001d0: 3036 043d 6c6c 6dbd 89bb 8f3d b017 c83d
000001e0: 96e0 8f3d 3226 363d f420 62bd 081c 0bbd
000001f0: 3746 6ebd 39a3 29be 3566 583d 8805 3a3c
00000200: f576 863c 733a 243d 30dc a7bd 3d88 77bd
00000210: 8b3f 27be aa1c 89bd c6fe 9dbd 1f25 99bd
00000220: 419c 1dbe f7d9 2bbe d2e0 64bd 73bd 36be
00000230: 30d6 a6bd 0ace 4d3d 74b5 b93d b7d8 5c3c
00000240: d962 01be 0f33 8ebd b7fa 14be f69f 9dbd
00000250: 2847 123d 3253 01bd 4265 0fb8 8d80 4d3d
00000260: 2df5 96be c328 9e3d fd27 0d3d 6d70 f03b
00000270: bf25 20be 695f 65bd 2559 6d3d d32c 53bb
00000280: 5bab f6bc a375 973c d539 10be 1087 86bd
00000290: 81b5 19be c89b f1bc ad9a 8f3d 2a10 4ebd
000002a0: 56cd 09be 3c69 8ebe 1e69 0b3d f9d9 8f3d
000002b0: fa0d 1b3d 1d97 a13d 4322 c0bc 02f3 18bc
000002c0: f5f8 bebd 7eed 1abc 498c 1e3d 723f d03d
000002d0: 57a4 7abe 25e0 a1be 537c 42bd 442d 833c
000002e0: b49d 6a3d 7014 313d 9a88 eb3d 8996 3f3d
000002f0: cf62 7b3d e4b0 27bd 194e bebc f559 993d
00000300: 38af f83c 9953 913d da72 32be 592f 92be
00000310: ebf3 593d 5317 4e3d 38cf 883d f11e e83c
00000320: d051 c03c 41c7 a1bc 405b dcbd a489 c0bd
00000330: 9224 e73c 76db d03d 5f7f 06bf 7270 5bbe
00000340: 1baa 32bd afaf 49bc d1c4 573d 9a68 be3d
00000350: 1b25 f93c 2ecd 17bd 9903 fdbd 084a 03be
00000360: d5be b2bd 5d04 cfbc ebd8 b23d 3cf0 e13d
00000370: 19b8 0bba 49c7 033c 1b13 7cbd 3475 8fbd
00000380: 4d34 7d3b 7a6b 11bd 5706 0ebd 10ac 00be
00000390: 2e38 17be c7d7 cdbd aa8c 00be 2ec6 f53d
000003a0: afd5 fa3d af5b ee3d ddf9 b0bc f2ab 1bbc
000003b0: c4fa a03d 1d6d e13b 9c96 d5bc c9c2 dcbc
000003c0: e681 1c3d bab7 b9bc 2de1 49bd 116a bb3c
000003d0: ced5 753c 7ef2 3ebc d775 40bc 9ab7 09be
000003e0: db0d 4f3d 15ea 963d 3df4 d3bb d702 6cbd
000003f0: 4f0b 37bc 8c9e 45bd 6301 c5bd f7d7 7dbc

fc1.bias f4 [128]
-0.06753493 -0.04234197 -0.10882234 0.08940375 0.06133419 -0.022685809 -0.01083877 0.036820285
-0.064417265 -0.04543017 0.104233325 -0.069497034 0.114769936 0.02265266 -0.049959343 -0.051145174
-0.05568474 0.11659436 0.1411938 0.007988219 0.068797894 -0.07140969 0.048036072 0.1122196
0.05232319 0.024776991 0.038510878 -0.06905495 0.062181532 0.057803363 0.038741075 -0.013961426
-0.048382606 -0.04460893 -0.019060303 -0.09426833 0.12361522 0.12477065 -0.04604059 -0.04533258
-0.0146345645 -0.11697851 0.010204791 0.10353971 -0.046235904 0.08848107 0.026087968 -0.06338635
0.00018522743 -0.03280756 -0.05655137 -0.08970508 0.015039453 -0.0523803 0.11156197 -0.021214552
-0.09629057 0.047162272 -0.027835248 -0.101215936 0.04733764 -0.046513896 -0.007559611 -0.007926884
-0.004114054 0.021566115 -0.020385744 0.0078838775 0.14040451 -0.0053695934 -0.007837724 0.08423446
0.06416693 0.011548856 0.0718831 0.00027084438 0.03923204 -0.12340735 0.0056577194 -0.021419117
0.033011507 -0.029285962 -0.04573431 -0.0889942 -0.0072985627 0.10024604 -0.0308193 -0.089002185
-0.03666454 0.036699638 -0.12800206 0.005845208 -0.09163367 -0.044195622 -0.0715486 -0.09521127
0.048471194 0.056921612 0.012087632 0.045000285 0.076239906 0.037093773 -0.006016142 -0.03901684
-0.049742 0.0062136217 0.09273546 0.12571242 -0.08075626 0.057758603 -0.08211816 0.07763249
-0.044004723 0.026197065 -0.043975096 -0.07188071 -0.016132494 -0.05872798 -0.02827953 -0.08932469
0.09235012 0.1299646 -0.13380495 -0.13849607 0.08174513 -0.030047175 -0.01234999 -0.02121846
00000000: c14f 8abd c66e 2dbd 3fde debd 5019 b73d
00000010: 8f39 7b3d 97d7 b9bc 1995 31bc ded0 163d
00000020: 33ed 83bd fc14 3abd 4878 d53d 7654 8ebd
00000030: 800c eb3d 1292 b93c 2ba2 4cbd 9a7d 51bd
00000040: af15 64bd 06c9 ee3d 1c95 103e 05e1 023c
00000050: e9e5 8c3d 3e3f 92bd 79c1 443d 64d3 e53d
00000060: d750 563d 1ef9 ca3c 95bd 1d3d ae6c 8dbd
00000070: 10b2 7e3d 38c3 6c3d f6ae 1e3d 77be 64bc
00000080: d72c 46bd dab7 36bd 5a24 9cbc c10f c1bd
00000090: fa29 fd3d c187 ff3d 0f95 3cbd a8ae 39bd
000000a0: d0c5 6fbc 6e92 efbd ff31 273c a10c d43d
000000b0: dc61 3dbd 9035 b53d 6fb6 d53c b4d0 81bd
000000c0: 9c39 4239 3861 06bd 69a2 67bd 4cb7 b7bd
000000d0: 0a68 763c ba8c 56bd 9a7a e43d 24ca adbc
000000e0: fe33 c5bd 3a2d 413d bf06 e4bc 4d4a cfbd
000000f0: 1de5 413d 5b85 3ebd 9db6 f7bb c3df 01bc
00000100: 30cf 86bb 6cab b03c 0100 a7bc 612b 013c
00000110: 33c6 0f3e 6af3 afbb cc69 00bc 1e83 ac3d
00000120: f469 833d 6a37 3d3c 7237 933d 1e00 8e39
00000130: c7b1 203d febc fcbd 6464 b93b 2577 afbc
00000140: 1337 073d 1de9 efbc e653 3bbd 9742 b6bd
00000150: c828 efbb cc4d cd3d c278 fcbc c746 b6bd
00000160: 8f2d 16bd 5c52 163d f912 03be 2989 bf3b
00000170: 6faa bbbd 7806 35bd 1388 92bd 20fe c2bd
00000180: bb89 463d a326 693d 340b 463c 3852 383d
00000190: ab23 9c3d a4ef 173d 0f23 c5bb 1fd0 1fbd
000001a0: 44be 4bbd a39b cb3b 17ec bd3d c2ba 003e
000001b0: 8a63 a5bd 4994 6c3d 912d a8bd c8fd 9e3d
000001c0: 4c3e 34bd 3a9b d63c 3b1f 34bd 3236 93bd
000001d0: 4b28 84bc c08c 70bd 79aa e7bc ddef b6bd
000001e0: 0f22 bd3d 7115 053e 2a04 09be ead1 0dbe
000001f0: fe69 a73d 7e25 f6bc 9d57 4abc 56d2 adbc

fc2.weight f4 [3, 128]
-0.23217809 -0.05423218 0.008547711 0.0700909 0.09443491 -0.0048322016 -0.16083165 0.095273376
-0.09391979 -0.033523276 0.08390264 0.003187389 0.10844182 0.0051059667 0.04690544 -0.027228994
-0.054410703 0.083387695 0.0066642524 -0.21331716 0.15379927 -0.045664385 0.07103733 0.07679779
0.029165937 0.07972835 0.04114872 0.028696444 0.015609811 0.0725243 0.07866795 -0.065680355
-0.03069942 -0.13157867 -0.1668622 -0.11998613 0.1240107 0.038037326 -0.016781919 -0.069580324
0.06539612 0.09979522 -0.07028558 0.06599375 -0.19542882 0.038592417 -0.15612549 -0.0546183
-0.069684505 -0.27593774 -0.035926618 0.008684629 0.07517688 -0.058321528 0.17209421 -0.027630752
-0.16912837 0.13864113 0.016216451 -0.18093285 0.12285235 0.054623358 0.08594421 -0.035268724
0.07083667 0.05326239 -0.17722781 -0.19066001 0.16968364 -0.009481322 -0.18824111 0.10072695
0.05069419 0.04612141 0.15577962 0.04048066 0.03524926 -0.09296189 -0.17997998 0.04815123
0.09382006 -0.1921581 -0.2763108 -0.14520591 -0.15175983 0.12527308 -0.06438008 -0.031998985
0.08356461 -0.02207904 -0.08228185 0.02331942 -0.17142291 -0.07675656 -0.12003248 -0.09949592
0.04618897 0.11716239 -0.0010351788 0.09542543 0.042054597 0.028289113 -0.2217324 -0.038418837
-0.09639749 0.032512765 0.12412182 0.106387556 -0.014032588 0.14779061 -0.13122301 0.16680911
0.021009866 -0.09447436 -0.13296802 -0.14277935 -0.07587403 -0.04596803 -0.054427408 -0.05353039
0.058264427 0.20063077 -0.15610482 -0.06284167 -0.0088696135 0.017144023 -0.06739309 0.06439348
0.14957075 -0.027762331 -0.053695787 0.1383104 -0.13664632 0.029578919 0.094942175 0.07792047
-0.007349977 -0.009295799 0.06299787 -0.11611333 -0.19001755 0.013809846 0.09931674 0.04262086
0.011753241 -0.16741586 -0.2876935 0.11477114 -0.19635256 -0.07432055 -0.057763245 -0.17332935
-0.18278623 -0.12528458 0.060993508 -0.069097236 -0.25644675 0.09828505 -0.026158955 0.20952004
-0.073334225 -0.02028575 0.18805553 -0.058500316 -0.14505854 -0.08407465 0.0025020968 -0.117405415
0.01850822 -0.14428751 0.019977506 0.02647991 0.21053046 -0.092309766 0.16278072 0.07328841
0.06043639 0.10194473 -0.06695694 -0.017242298 0.08427784 0.016005335 -0.21720996 0.020129723
0.03144883 -0.17385551 0.08313117 0.28347743 -0.2332964 0.0027330068 -0.26071313 0.065359734
-0.3277462 0.066504054 0.09878006 0.22387655 -0.18111111 -0.042453956 0.15038906 -0.23219164
-0.23303021 0.078667454 -0.15843815 -0.034300633 -0.09128956 -0.0646597 0.17523083 -0.052789595
0.06890371 0.18378545 0.13877037 -0.14776406 0.14694692 -0.19467166 -0.0018257105 0.046089843
0.03532694 -0.042819243 -0.14296661 0.022308782 -0.026704699 0.049658604 -0.0187216 0.08333356
-0.24994224 -0.025125602 -0.011252052 -0.14201464 0.020316854 -0.07503335 0.18323267 -0.07016193
0.12005502 -0.055259377 -0.14622389 0.1347377 -0.114772856 -0.09891265 0.015207121 -0.12621424
0.057361767 -0.049417723 0.11271153 -0.13563451 0.03246964 -0.12596075 -0.06789477 -0.009091475
0.071612775 -0.220542 -0.068432465 -0.05407485 -0.18082437 0.044154234 0.017313557 -0.09468748
00000000: 18c0 6dbe 9022 5ebd b30b 0c3c d18b 8f3d
00000010: 1767 c13d 7257 9ebb 0db1 24be b01e c33d
00000020: 0559 c0bd b44f 09bd 26d5 ab3d 84e3 503b
00000030: bf16 de3d f44f a73b eb1f 403d 570f dfbc
00000040: c2dd 5ebd 2bc7 aa3d cd5f da3b d06f 5abe
00000050: 8e7d 1d3e 940a 3bbd 057c 913d 2948 9d3d
00000060: 67ed ee3c 9e48 a33d 8f8b 283d ce14 eb3c
00000070: 4bc0 7f3c 9f87 943d aa1c a13d 6c83 86bd
00000080: 5a7d fbbc 8fbc 06be eddd 2abe 4abb f5bd
00000090: 52f9 fd3d 07cd 1b3d 3c7a 89bc 2180 8ebd
000000a0: 67ee 853d 7061 cc3d e3f1 8fbd bb27 873d
000000b0: 7e1e 48be 1513 1e3d 5cdf 1fbe 70b7 5fbd
000000c0: c0b6 8ebd b647 8dbe ca27 13bd f949 0e3c
000000d0: 56f6 993d 8ee2 6ebd 7739 303e e359 e2bc
000000e0: fd2f 2dbe f1f7 0d3e 5dd8 843c 7646 39be
000000f0: 039a fb3d bebc 5f3d 8503 b03d f075 10bd
00000100: d112 913d aa29 5a3d 357b 35be 613c 43be
00000110: 8cc1 2d3e 8c57 1bbc 47c2 40be ee49 ce3d
00000120: b6a4 4f3d cee9 3c3d b184 1f3e 0ccf 253d
00000130: 8761 103d ce62 bebd ac4c 38be 393a 453d
00000140: bb24 c03d 18c5 44be 9c78 8dbe dcb0 14be
00000150: ee66 1bbe 9647 003e b4d9 83bd 5e11 03bd
00000160: ec23 ab3d 1adf b4bc 6383 a8bd 5e08 bf3c
00000170: 7d89 2fbe 8b32 9dbd 97d3 f5bd 84c4 cbbd
00000180: a530 3d3d d6f2 ef3d d6ae 87ba 686e c33d
00000190: 7141 2c3d 92be e73c d10d 63be 125d 1dbd
000001a0: 0c6c c5bd 1b2c 053d 9533 fe3d b8e1 d93d
000001b0: f1e8 65bc 6c56 173e 535f 06be 02d0 2a3e
000001c0: e21c ac3c c67b c1bd c528 08be c034 12be
000001d0: d863 9bbd f948 3cbd 46ef 5ebd af42 5bbd
000001e0: aea6 6e3d 2772 4d3e f1d9 1fbe 22b3 80bd
000001f0: db51 11bc 9f71 8c3c 6305 8abd bbe0 833d
00000200: 1329 193e d46d e3bc 1df0 5bbd 3ea1 0d3e
00000210: 03ed 0bbe 7d4f f23c 0b71 c23d c494 9f3d
00000220: 13d8 f0bb 684d 18bc 0705 813d d3cc edbd
00000230: f693 42be b142 623c 9366 cb3d 3693 2e3d
00000240: aa90 403c 106f 2bbe 904c 93be 220d eb3d
00000250: a510 49be 5f35 98bd 2799 6cbd 407d 31be
00000260: 502c 3bbe 9a4a 00be 54d4 793d da82 8dbd
00000270: fd4c 83be ac49 c93d 4e4b d6bc 6c8c 563e
00000280: 4130 96bd 4d2e a6bc a191 403e 079e 6fbd
00000290: 3a8a 14be 552f acbd 38fa 233b 4072 f0bd
000002a0: 8d9e 973c 1bc0 13be dea7 a33c 65ec d83c
000002b0: 4c95 573e e70c bdbd fdaf 263e 3c18 963d
000002c0: 268c 773d 66c8 d03d b820 89bd b83f 8dbc
000002d0: dc99 ac3d 9f1d 833c 4a6c 5ebe 17e7 a43c
000002e0: 7dd0 003d 2e07 32be ad40 aa3d f423 913e
000002f0: 40e5 6ebe 3f1c 333b 317c 85be 53db 853d
00000300: 5ace a7be 4733 883d 334d ca3d e53f 653e
00000310: 3175 39be 33e4 2dbd 97ff 193e a5c3 6dbe
00000320: 799f 6ebe 671c a13d 9c3d 22be d27e 0cbd
00000330: 05f6 babd 4e6c 84bd b66f 333e e739 58bd
00000340: 631d 8d3d 4132 3c3e d219 0e3e 764f 17be
00000350: 4179 163e 0258 47be ae4c efba b4c8 3c3d
00000360: fbb2 103d 3b63 2fbd d765 12be e8c0 b63c
00000370: d0c3 dabc d266 4b3d 0a5e 99bc c9aa aa3d
00000380: dcf0 7fbe 35d4 cdbc 875a 38bc 496c 11be
00000390: 886f a63c 16ab 99bd 58a1 3b3e 0fb1 8fbd
000003a0: 68df f53d a857 62bd b7bb 15be aef8 093e
000003b0: 080e ebbd b792 cabd 4a27 793c 4e3e 01be
000003c0: 2cf4 6a3d 3d6a 4abd 4dd5 e63d c6e3 0abe
000003d0: e3fe 043d dbfb 00be 6a0c 8bbd 69f4 14bc
000003e0: b8a9 923d c3d5 61be 5226 8cbd 977d 5dbd
000003f0: 062a 39be 12db 343d 29d5 8d3c 82eb c1bd

fc2.bias f4 [3]
0.0049548266 -0.007421301 -0.1748811
00000000: 195c a23b 632e f3bb 0814 33be
