checkpoints/CNN_fold_5.pth (torch, 225380 bytes, 8 tensors)

conv1.weight f4 [16, 4, 3]
000000 33 d5 03 be 10 7a 02 3e 12 54 ab 3e c4 09 1a be
       -0.12874298 0.12741876 0.33462578 -0.15042788
000010 64 d2 c0 bd 92 8b a1 3d ea 29 91 3e 5d dc 08 3d
       -0.09415129 0.07887949 0.2835229 0.03341328
000020 ef 4b 00 3e 50 fe 1f 3d d3 b5 53 be 89 57 6d be
       0.12528966 0.03906089 -0.20674829 -0.23177923
000030 59 fd bf be 90 d1 5a be 93 16 bd be ff da 19 3e
       -0.37497976 -0.21369004 -0.36931285 0.15024947
000040 33 f3 0d 3d 4e 2e 7e bb 1b 2d 21 3e a6 94 6e 3e
       0.03465576 -0.0038784924 0.15739863 0.23298892
000050 77 47 29 3d a8 bf 7e bd fa e2 83 3d e9 d5 25 be
       0.04132792 -0.062194496 0.06439777 -0.16194881
000060 6e 98 22 3e 09 6c 3d be dc 22 e0 bd 30 8f 6d 3e
       0.1587846 -0.18498243 -0.10944149 0.23199153
000070 9a b8 09 3e 44 d1 ac 3e 49 00 5c be fb d4 c7 3c
       0.13449326 0.33753407 -0.21484484 0.02439355
000080 f2 1b c9 bd d9 7b 04 be b3 cb dd bd 30 98 aa be
       -0.09819783 -0.12937869 -0.10829868 -0.33319235
000090 7e d6 b4 3d 3d da b4 bd 07 60 eb bd 35 3b 52 bd
       0.08829974 -0.08830688 -0.11492925 -0.051325995
0000a0 bf eb c8 bd 9d 8e c4 3d 38 1e 7d 3e 0e c8 38 be
       -0.0981059 0.09597514 0.24718559 -0.18045065
0000b0 82 e4 58 be 09 35 41 3e d8 39 7d bd 3b ed 91 bd
       -0.21180919 0.18867888 -0.061822742 -0.07125326
0000c0 70 72 8b 3e a0 3a 3c 3e 81 12 27 3e ab 90 81 be
       0.27235746 0.18381739 0.16315652 -0.25305685
0000d0 34 64 19 be 3f 7b 88 be a8 35 79 3e 16 2c 0a 3e
       -0.1497963 -0.2665653 0.24336874 0.1349338
0000e0 8e 32 3d 3e 0e 90 8b 3c 94 f5 0a 3e f1 5a bd bd
       0.18476316 0.017036464 0.13570243 -0.09245861
0000f0 be d4 7a 3e 25 6b 58 be e8 1e 4e be 17 72 25 be
       0.24495217 -0.21134622 -0.20128977 -0.16156803
000100 bb 55 45 3e ff cb 0d 3e 14 42 db bd 67 0e 5a 3c
       0.19270985 0.1384735 -0.10705963 0.013309098
000110 d5 71 07 be cd cd 89 be 70 33 2c be 03 71 96 bc
       -0.13227017 -0.26914826 -0.16816497 -0.018364435
000120 db 7d d3 3e 04 1a 3c be 59 cb d7 bd 64 81 a5 be
       0.41306958 -0.18369299 -0.10536832 -0.3232528
000130 ad 77 db 3d 3e ed bd be 33 10 f9 bd 2d a6 f9 3d
       0.10716186 -0.37095064 -0.12161293 0.12189899
000140 a6 7b 15 3e 02 7a 35 3d 52 01 b7 bd c5 95 0a be
       0.1459795 0.04430581 -0.08935799 -0.13533695
000150 bd 52 ac bd 35 02 31 be 0d 2f 5e be 63 d4 c7 be
       -0.084142186 -0.17285998 -0.21697636 -0.39029226
000160 d6 1f c2 3d 51 e9 99 be 91 64 25 bc 90 6f 59 bb
       0.094787285 -0.3006082 -0.010094778 -0.0033178069
000170 9d bd 8d bb aa 0e 9e 3e 36 4d 31 be 99 d0 ae bc
       -0.004325582 0.30870563 -0.1731461 -0.021339701
000180 ce e6 cf 3d 5a b5 4c 3e b0 9a 75 3e 7c 72 99 3e
       0.101514444 0.19991055 0.2398479 0.29970157
000190 e9 c5 46 3e 17 88 a0 3c 48 ae 86 3e 39 bc 96 3d
       0.19411434 0.019596143 0.2630484 0.073601194
0001a0 64 ab c4 bc 61 05 81 3e 71 5a 0d be 75 c4 01 3c
       -0.024007507 0.25199416 -0.13804032 0.007920374
0001b0 b8 b9 af 3e 65 d5 f7 3e 01 5e fb 3d 62 03 ad be
       0.3432138 0.48404995 0.12273789 -0.33791643
0001c0 8e 59 c8 bd 9e 19 56 be b0 4a 90 bd 4b b4 23 3e
       -0.09782706 -0.2090821 -0.070454955 0.15986745
0001d0 5d e8 59 be 47 ad 29 3e 2f 9e 1c be 60 a1 af 3d
       -0.21280046 0.16570006 -0.15294717 0.08575702
0001e0 25 37 c3 3d ad 73 c2 3e 82 32 21 3e 42 d4 80 bb
       0.09532002 0.3797888 0.15741923 -0.003931553
0001f0 15 29 8a 3e 92 e6 9c bd 10 39 ac 3e bc d2 bf 3c
       0.26984468 -0.07661165 0.33637285 0.023415916
000200 c3 76 a0 3d f9 39 f7 3d 81 4d fa bd 46 e4 7b bd
       0.07835152 0.12071604 -0.12221814 -0.061496995
000210 78 9a c1 3d 21 78 a3 3e e6 d8 a2 3d 4b a7 3d be
       0.09453291 0.3192759 0.07951526 -0.18520848
000220 53 fc 0d 3e 52 9e 02 3e 6a 7d c9 bc 3d 6e c7 3d
       0.13865785 0.12755707 -0.024595935 0.09737823
000230 27 54 b0 3e fd 69 ec 3d ad 72 4a be 51 63 d7 bd
       0.34439203 0.11543653 -0.19770308 -0.1051699
000240 6a a1 8a 3c bd d9 06 be 24 88 a7 be bf c8 b5 3e
       0.016922671 -0.13168998 -0.32721055 0.3550472
000250 87 ba 3d 3e c4 6d c9 3e 78 61 78 be 7a 17 ff 3c
       0.18528186 0.39341557 -0.24255931 0.031139124
000260 5a e5 04 be ec 9a 52 be 32 ad 3b bc 5e 88 d2 bd
       -0.12978116 -0.2056691 -0.011454867 -0.10279916
000270 1e 9c 58 be e5 6e 9c be 80 7c b4 be ab ac fe bd
       -0.21153304 -0.30553356 -0.35251236 -0.124352776
000280 b3 4e 94 be 0f 14 ae be 7a b3 71 3c 2c 22 70 be
       -0.28966293 -0.33999678 0.014752263 -0.23450536
000290 0a 3b 8f 3e 8a 10 97 3d 70 33 66 3e 0a 57 45 be
       0.2797473 0.073762015 0.2248056 -0.19271484
0002a0 e0 ed a3 be 75 57 19 bd aa 56 2b be ae b6 a2 3e
       -0.32017422 -0.03743692 -0.16732278 0.3178
0002b0 bc f0 3f be 03 e0 0c 3c 6c b3 13 be 6f a1 69 be
       -0.18744177 0.00859833 -0.14423913 -0.22815488
0002c0 89 a0 b5 bd e2 10 16 be f6 7c 12 be 2e 08 38 3e
       -0.0886851 -0.14654878 -0.14305481 0.1797187
0002d0 c9 34 43 3d 3a c2 56 3e c8 cb 70 be 4b a9 b1 bc
       0.04765776 0.20972529 -0.23515236 -0.02168717
0002e0 41 79 cc be 1d 60 9b be 43 30 32 be d2 ff e3 bd
       -0.3993626 -0.30346766 -0.17401223 -0.11132778
0002f0 49 8b 5d be 53 dc dc 3d 94 aa 52 be a5 1f 7e be
       -0.21635164 0.10784211 -0.20572883 -0.24816759

conv1.bias f4 [16]
000000 ad 3a 8a be 04 e1 8a be dd 45 47 3e f5 bb fe 3d
       -0.2699789 -0.27124798 0.19460244 0.12438194
000010 91 84 28 3e 98 91 fd 3c 64 a7 c3 3b 1c 84 61 be
       0.1645682 0.030953214 0.0059708823 -0.22023052
000020 f6 3c a6 3e ee 8c ed bd 34 56 c8 3d 98 ae 6b 3e
       0.32468385 -0.11599146 0.09782067 0.23015821
000030 8a b2 00 be 6b 80 21 be 9f d2 dd 3d e9 ef 61 3e
       -0.12568107 -0.15771644 0.108311884 0.22064175

conv2.weight f4 [32, 16, 3]
000000 35 dd c1 3c 97 40 24 bd 67 46 14 bc 27 cc 10 3e
       0.02366505 -0.04010066 -0.009049988 0.14140378
000010 df b4 a3 bd c3 94 2b bd 7c ce f7 3d 02 7d 1a 3c
       -0.07993483 -0.041889917 0.12099931 0.009429218
000020 13 b7 5b bd 68 2b 90 3d ce be 43 3d d1 5e 37 be
       -0.05364139 0.07039529 0.047789387 -0.17907263
000030 1f 0f a3 bd 47 41 1a be 70 90 0e be a0 64 4c 3e
       -0.079618685 -0.15063964 -0.13922286 0.1996026
000040 94 e8 cf bd f4 59 0d 3e 20 0e 23 3e 8e e6 10 be
       -0.10151783 0.13803846 0.15923357 -0.1415045
000050 3e a2 96 3d 7d 33 c0 3b 0f 3a 05 3c 32 60 26 bd
       0.07355164 0.005865513 0.008131518 -0.040619083
000060 73 17 a5 bd cb ef b8 3c 6c a0 bb 3d d3 aa c3 3d
       -0.08061113 0.02257528 0.091614574 0.095540665
000070 1a dc d4 bd 0e e5 c3 3c 79 2b 0d bd 00 df 84 bc
       -0.103935435 0.023912933 -0.034465287 -0.016219616
000080 f7 c0 35 bc 45 09 f3 bd 85 a9 13 be c3 49 8c bd
       -0.01109337 -0.118670024 -0.14420135 -0.068500064
000090 7b ad b3 3d 20 cc 49 3e d0 00 ce bc 4b 5f 3a bc
       0.08773323 0.19706774 -0.025146872 -0.011375259
0000a0 ce f3 30 bc f6 01 fd 3d 9b 07 01 3e 3d 96 ad 3d
       -0.010800315 0.1235389 0.12600558 0.08475921
0000b0 a7 67 2d 3e a9 42 62 bd 2f 73 d1 3d 4b 07 8c 3d
       0.16934071 -0.055239353 0.10227048 0.068373285
0000c0 29 5f 27 be 92 be 59 bd 98 b8 f5 bc 5b f0 aa bc
       -0.16344894 -0.053160258 -0.029995248 -0.020866564
0000d0 2e 7c 7b bc d3 4e c2 3c 05 7e d6 bd b4 c2 c4 3d
       -0.015349431 0.023719227 -0.10473255 0.09607449
0000e0 b5 7a d5 3d 99 c9 c3 bd a5 be 4f 3c bb 49 22 be
       0.10423795 -0.09559936 0.012679731 -0.15848438
0000f0 91 bf 11 3d 28 9b 67 3d 2e fd 01 3e 83 ab 9f 3d
       0.035583083 0.056544453 0.12694237 0.07796385
000100 8f 34 ca 3b 62 f5 4b bd e6 d2 2a 3e da 64 f6 3d
       0.0061708163 -0.049794562 0.16682014 0.12030955
000110 0b cb c9 3b 07 94 5b bd ed 6f 1d 3e 9a 13 74 3e
       0.006158238 -0.053607967 0.15374728 0.23835602
000120 81 66 06 be 0f 2d 39 3d c9 e7 02 be d9 00 ca 3c
       -0.1312504 0.045208987 -0.12783732 0.024658607
000130 75 a0 80 bc bd b8 0a be 38 3c 19 3d c7 e2 0c 3e
       -0.015701512 -0.13547035 0.037410945 0.13758384
000140 a9 ff 94 bc 35 ae 35 be b6 dc 28 3d 84 82 af 3d
       -0.018188315 -0.17742236 0.04122611 0.08569816
000150 b6 dd 75 bc 5c 12 40 3e 96 f2 58 3e 10 ca 91 3d
       -0.015006473 0.18757004 0.21186289 0.071186185
000160 8a b0 44 3e 00 68 31 bd 7b e9 b2 bd 7d b8 d1 3d
       0.1920797 -0.043312073 -0.08735939 0.102402665
000170 c0 a8 5f bd 7a a3 38 bd 18 cb a5 3d 4e de 3e 3d
       -0.054604292 -0.04507778 0.08095378 0.046598725
000180 5a 58 8b be b0 49 b1 3d 08 ce 9e 3d 4e 02 c6 bb
       -0.27215844 0.08656633 0.07754141 -0.006042755
000190 a8 55 0a 3e d3 21 d0 3c 46 8c be 3d a9 1e 41 3e
       0.13509238 0.025406754 0.09304099 0.18859352
0001a0 33 4e fb 3d 04 10 64 bc da f7 ae bc da 7a 78 3c
       0.12270775 -0.013919834 -0.02135842 0.015166009
0001b0 0c e6 17 3e f9 b2 3d 3a ba f7 93 3d 78 35 44 3c
       0.1483385 0.0007236447 0.072249845 0.011975639
0001c0 3b b7 a1 bc 66 7a 73 3d 75 9e 1d be 0b de 6d bd
       -0.019740691 0.0594429 -0.15392478 -0.058073085
0001d0 08 65 24 3d 63 44 11 3d ba d6 01 bc b6 1b fd bd
       0.040135413 0.03546561 -0.00792473 -0.12358801
0001e0 9b 70 46 3c eb 08 18 bd be 5e 90 bd 39 02 9d 3d
       0.012111808 -0.03711788 -0.07049321 0.076664396
0001f0 47 6a 7d be 79 1f 00 be de 38 c0 bd eb 04 b2 3c
       -0.24747573 -0.12512006 -0.093858466 0.02173086
000200 ed 2f c5 bd b2 6c 7c 3d 1c 08 01 bc df 82 09 be
       -0.09628282 0.061627097 -0.007875469 -0.1342883
000210 92 40 90 3e ca 38 33 3e 13 17 e2 3d f7 ab 1c be
       0.28174263 0.17502132 0.11039557 -0.15299974
000220 f7 5b a8 3c 10 1c ab bc 1d a9 e8 bc 01 86 bf bd
       0.020551665 -0.020887405 -0.028400952 -0.09351731
000230 64 75 9e 3d 22 24 31 be a3 7c 75 bd 94 cd fc 3c
       0.07737234 -0.1729894 -0.059933316 0.030859746
000240 8b 37 02 3e 71 fa 2c 3e 39 e7 43 3d 90 85 d4 bd
       0.127165 0.16892411 0.047827933 -0.103770375
000250 31 6a 6d 3b 8c 1c 45 be 6c e0 52 3e 5a 36 86 3d
       0.0036226625 -0.19249171 0.20593423 0.065533355
000260 34 d6 fd bd a3 84 2b 3e d6 07 f5 3d 8c 1d f4 bd
       -0.12394372 0.16749816 0.11964385 -0.11919698
000270 37 a9 48 be 44 90 05 3c de 87 e0 bd d0 33 6a bd
       -0.195958 0.008152071 -0.109634146 -0.05717832
000280 ca f3 fd 3d e6 5b 0c 3e be 98 5b bd 03 11 29 3d
       0.12400015 0.13706931 -0.053612463 0.04127599
000290 97 02 ac 3d 0b 14 9b bd 44 c1 5d 3d 70 5f e6 bd
       0.083989315 -0.07572182 0.05413939 -0.11248672
0002a0 37 03 1e be 3c d6 1a be 54 42 5c 3b ed bc 45 bd
       -0.15430914 -0.15120786 0.003360887 -0.048275877
0002b0 95 22 5c be a1 68 43 be 8a fd 8a 3a 3d 21 f3 bc
       -0.21497567 -0.19082882 0.0010604125 -0.029678935
0002c0 76 ca af 3d 9e 8d f8 bd 5f 53 bb bd ec 9e e3 bd
       0.08583538 -0.12136386 -0.09146761 -0.11114296
0002d0 ac 59 38 3e 1f e5 c1 3d ad 5d dd 3d 76 f8 72 bc
       0.18002957 0.094675295 0.10808883 -0.0148297455
0002e0 ce 66 ff bd 5a 25 87 bc 00 18 b1 3d da 7e 12 bd
       -0.1247078 -0.016497303 0.08647156 -0.035765506
0002f0 62 c4 1f 3e 7a 2f f8 3d 48 48 84 3c ca 35 e6 3c
       0.15602258 0.121184304 0.016147748 0.02810182
000300 6f 27 71 bc f6 27 dd bd a0 f9 8f bd 23 5b 8f 3a
       -0.014718874 -0.107986376 -0.07030034 0.0010937195
000310 f1 79 86 3c 72 92 9c 3d ed 12 ac 3d d5 13 05 3d
       0.016415568 0.0764512 0.08402047 0.032489616
000320 28 58 df bc 92 0b 93 bc 5c 26 b6 3d d6 dc 14 3e
       -0.027263716 -0.017949853 0.08894035 0.14537367
000330 84 01 03 3e 6b f9 a7 3c a2 cd 9d bd f3 b2 9e 3d
       0.12793547 0.020504674 -0.07705237 0.077489756
000340 df 85 95 3c ab a3 40 bd d2 cb 4e 3d 07 e9 7b bb
       0.018252311 -0.047031086 0.050487347 -0.0038438456
000350 f2 17 49 be bd 21 44 be 74 72 2f be 2e 46 c6 bd
       -0.1963804 -0.19153495 -0.17133504 -0.096813545
000360 45 14 fa bb bd 61 41 bd cc cf 7d bd 6b 4f ce bd
       -0.007631811 -0.04721235 -0.06196575 -0.100737415
000370 45 2c 08 be 42 ff 3c be 84 08 35 bc d5 87 8b 3c
       -0.13298137 -0.18456748 -0.011049394 0.017032543
000380 84 c6 37 be b8 73 b5 3d cf 39 fe bd a4 dc 3e bc
       -0.17946821 0.08859962 -0.1241337 -0.0116492845
000390 17 ac 84 3d 3e d1 74 bd 44 97 0c be 0c bb 95 3d
       0.06478136 -0.05976986 -0.13729578 0.07311067
0003a0 74 3e 73 bb 83 df 46 bc 98 9e 57 bd f5 2d f6 3d
       -0.0037116082 -0.01213825 -0.05264148 0.12020484
0003b0 61 b9 3b 3d 4f e7 54 be 6d e9 84 3d 5b 09 07 be
       0.045831088 -0.20791362 0.06489835 -0.13187163
0003c0 5b 3d 0f be 1e 91 84 3d fc 55 cb bd 35 11 da bd
       -0.13988249 0.064729914 -0.099285096 -0.10647813
0003d0 52 f7 a8 3c 5e dd 09 3d 5e ea 9c 3d 24 69 d8 bd
       0.020625744 0.033658378 0.076618895 -0.10566929
0003e0 da d4 9e 3d 1a b4 0a 3d 60 5f d7 3c a4 db 2e bd
       0.07755442 0.033863164 0.026290596 -0.042689934
0003f0 75 fb f7 bd b8 c6 5d bd 1b 1a 05 bd 7d 33 9a bd
       -0.121085085 -0.05414459 -0.0324956 -0.07529352

conv2.bias f4 [32]
000000 b0 0c 05 3d f5 91 91 bd 54 65 d1 bc 33 b4 cd 3d
       0.032482803 -0.07107917 -0.025561012 0.10044136
000010 34 89 6d 3e 7e ab e0 bd 28 86 18 be 81 b0 c2 bd
       0.2319687 -0.109702095 -0.14894927 -0.09506322
000020 b5 dc c8 bd 1a 5f 8d 3d 88 c5 eb 3d 1a e4 95 b9
       -0.098077215 0.06902905 0.115122855 -0.00028589444
000030 1d a4 33 bd 54 9f 19 bb da 63 03 3e 3c 60 02 3e
       -0.043857682 -0.0023440914 0.12831059 0.12732023
000040 1c 50 63 3d 13 0f ba 3c 25 07 04 be 96 2f 49 bc
       0.05549632 0.022712266 -0.1289335 -0.012279412
000050 bb 08 9b 3b e8 15 19 3e 48 0f 23 bd 48 1d 00 be
       0.0047312654 0.14949763 -0.039809495 -0.1251117
000060 dd f8 e0 3d 37 b9 31 3e d5 be 5a 3d 3c 5c e9 3d
       0.10984967 0.1735581 0.053404648 0.113945454
000070 cf 94 de 3d 00 71 18 be 27 bb 14 b8 4f 5a b1 3d
       0.10868227 -0.14886856 -3.546025e-05 0.08659803

fc1.weight f4 [128, 416]
000000 bd 3b 27 3e 30 1a b7 3c e1 9d e3 3d 45 c8 c0 3c
       0.16331382 0.022351354 0.111140974 0.023532996
000010 d0 69 b4 bb 39 46 9c bc 4b 31 b7 3c e9 d3 99 3c
       -0.005505778 -0.019076454 0.022362372 0.018777804
000020 55 e8 2a 3d 64 11 21 bd 17 79 58 bc dc ae 2c 3d
       0.041725475 -0.039323226 -0.013212464 0.042158946
000030 0f 97 86 bc fb e8 e4 3c 28 9d e2 3c 86 00 86 3d
       -0.016429452 0.027943125 0.027662829 0.065430686
000040 4d 99 dd 3b 46 38 0e 3d c4 d0 da 3c a4 c7 88 ba
       0.0067626596 0.034721635 0.026710875 -0.0010435474
000050 72 83 92 bb 15 75 0a 3d ae 23 81 3d a0 c7 41 3d
       -0.004471236 0.033803064 0.063056335 0.047309518
000060 71 8c 1d 3d a2 6b 03 3b 77 48 26 3d 4a fc 93 3d
       0.038464013 0.0020053168 0.04059645 0.07225855
000070 f5 57 fd 3c 09 0d ce 3d 56 45 5a bd 3d ec 64 3d
       0.03092573 0.1006108 -0.05328878 0.055889357
000080 63 ff 0e 3e cb 72 6c 3d 89 41 48 3b 60 09 d8 3b
       0.1396461 0.057726663 0.003055664 0.0065929145
000090 7e b7 3a 3d f6 c7 08 3d c8 07 00 3e 31 70 08 3e
       0.045585148 0.033393823 0.12502968 0.13324048
0000a0 c9 a7 9f 3e 76 a8 51 3e 46 d3 69 3e f5 9a 6f 3d
       0.31182697 0.20474419 0.228345 0.058497388
0000b0 c7 3a 10 3d ff 60 d9 3d cf 0c 3c bc da 23 ab bd
       0.035212304 0.10614204 -0.011477663 -0.083564475
0000c0 f5 16 8e ba 50 16 90 3e a9 7e 9a 3e f5 0f 19 bd
       -0.0010840582 0.28142023 0.3017476 -0.037368733
0000d0 48 31 28 3e 1d 9f 26 3d 1c 89 ad 3d 24 00 21 3e
       0.1642505 0.040679086 0.08473417 0.1572271
0000e0 80 64 c9 bc 16 ad 53 bc e3 3c 94 3d ea 11 25 3d
       -0.024584055 -0.012919685 0.07238176 0.040300287
0000f0 5a da f4 bc b7 48 8f 3e 45 89 85 3c 7c 06 6e 3d
       -0.029889274 0.27985165 0.016300807 0.058111653
000100 b6 5d bf 3d 16 d8 94 bd fc b6 42 bd 18 44 f4 3c
       0.09344046 -0.072677776 -0.04753779 0.029817626
000110 e3 13 28 bd ea dd 63 bc ba 15 5d 3c 1e 48 73 3d
       -0.04103459 -0.013907889 0.01349395 0.05939495
000120 1f 9f ab 3d 3a 0b 26 3d 26 f6 09 3d 62 33 1b bd
       0.08379959 0.04053805 0.03368201 -0.0378908
000130 ef 7e 82 3c 49 ee ac 3d 43 27 3c bb d9 3a dd ba
       0.015929667 0.08443887 -0.0028709925 -0.00168785
000140 32 31 ee bc e4 01 d1 3b 81 c3 3b 3d 1d 7c 94 bb
       -0.029076193 0.006378399 0.045840744 -0.004531397
000150 64 0f 2d 3d f3 31 86 3d dd 4f 6e 3d 2c eb 68 3d
       0.042251006 0.06552496 0.058181632 0.056864902
000160 1e 44 05 3d 1e a9 31 3e 48 65 7d 3e 36 50 44 3d
       0.032535665 0.1734967 0.24745667 0.047928058
000170 79 f0 57 3b 8e 19 3f 3c ce 5a 29 3d f5 35 da 3c
       0.003294973 0.011663808 0.041346364 0.026637057
000180 ad d7 bf 3c b3 96 6d 3d 5c f5 cb 3c 7b 2d a8 3d
       0.023418272 0.058005046 0.02489727 0.082118
000190 b2 e1 ac 3d 94 10 f3 3c db 09 96 3d f9 7d 96 3d
       0.084414855 0.029670991 0.073260985 0.07348246
0001a0 73 fa 75 bd 21 aa 98 ba f8 8a 77 bc 4c b9 c9 3c
       -0.0600533 -0.0011647382 -0.015108816 0.02462449
0001b0 a1 6c f1 3c 66 2a 5b bd 76 68 ec bc b2 03 94 3c
       0.029470744 -0.05350723 -0.028858405 0.018068168
0001c0 95 6c fe bc 7b 3e e2 3c 0a 23 a1 3c 84 91 fe 3c
       -0.031057635 0.027617684 0.019670028 0.031075247
0001d0 b6 98 84 bd fe b6 a6 bc 9c f2 26 3d 03 93 56 3d
       -0.0647444 -0.02035093 0.040758714 0.052386295
0001e0 db 5a 14 3d 03 2d 0d bd e6 e9 b4 bc 03 64 b8 3a
       0.03621946 -0.034466755 -0.022084188 0.0014067892
0001f0 e2 b2 99 3d 82 f9 a5 3d e6 25 7d 3d fc e4 c1 3d
       0.07504822 0.081042305 0.06180372 0.094675034
000200 07 d9 d8 3d c9 2f c4 3a 7c 34 61 3d e5 68 4b 3c
       0.1058827 0.0014967854 0.054981694 0.0124151455
000210 14 3c 28 bd 09 7e b7 3c c9 8d bc 3b dd 9e 0e 3d
       -0.04107292 0.022398965 0.005754207 0.034819473
000220 1b 1c 74 3d a6 ed 91 3c 73 7a 2d 3d 72 08 59 3d
       0.059597116 0.017813515 0.042353105 0.05298657
000230 4a 8d 20 3d 29 90 51 3d 24 74 0d 3e 6b 49 3b bd
       0.039197244 0.051162872 0.13813835 -0.045724314
000240 b1 13 87 3c 63 02 bd 3c 74 ec 33 3d d9 00 5c 3d
       0.016488882 0.023072427 0.04392667 0.053711746
000250 06 58 85 3c af 51 22 bd fa f4 f0 bb 0f 37 3f bd
       0.016277324 -0.03962868 -0.007353422 -0.046683367
000260 63 0c 87 3e e8 5d 4c bc 35 2f 68 3c 92 50 ac 3c
       0.26376638 -0.012473561 0.014171411 0.021034513
000270 89 6f c8 3b ad dd 26 3b b5 5a 4b bd a1 f2 79 3c
       0.0061168117 0.002546172 -0.04964705 0.015255601
000280 84 ed 03 3d f6 3d 8d 3c 53 f8 64 bb 01 2a 13 3c
       0.032208934 0.01724146 -0.0034938052 0.0089821825
000290 06 28 a2 bb 18 bf 82 3d f8 6e 56 3a eb 1c 8f 3c
       -0.004948619 0.063841045 0.0008179988 0.017469844
0002a0 b5 33 af 3d 2b 44 5a 3d 25 bf 7a 3c b4 c8 a8 3c
       0.08554784 0.053287666 0.0153043615 0.020603515
0002b0 a5 fb b9 3e 70 0c 94 3e d9 c4 1b 3e 59 52 49 3e
       0.36324802 0.2891574 0.1521181 0.1966032
0002c0 7e 92 55 3d 97 56 48 3d 44 fb 2e 3e bf 54 87 3c
       0.05214166 0.048910704 0.17088038 0.016519902
0002d0 15 5d 85 3d e7 19 37 3d a3 77 3d 3d 75 a4 92 bd
       0.065118946 0.044702437 0.046256673 -0.07160274
0002e0 e4 52 de bc 87 08 91 bd e8 0b 10 bc 91 3e 84 bc
       -0.027139135 -0.070817046 -0.008791901 -0.016143115
0002f0 24 a5 a7 3d 26 a3 cb 3d 19 33 0a 3e c9 ea 5d 3b
       0.08185795 0.099432275 0.13496055 0.0033861867
000300 99 d9 8e 3c 84 64 f7 bc d5 ec 2c 3e bd 99 e3 3d
       0.017437743 -0.030199297 0.16887219 0.111133076
000310 fe b0 dc bc f9 12 39 3d 04 67 70 3d f1 ba 09 3d
       -0.026939865 0.04518411 0.058691993 0.033625547
000320 07 92 20 3d 99 77 24 3c e1 85 a9 3c ff bb df 3c
       0.039201763 0.01003828 0.020693721 0.027311323
000330 75 87 78 bd 8b 91 65 3e 83 08 ed 3d f6 96 55 3d
       -0.060676057 0.22418801 0.11573889 0.05214592
000340 cb 70 28 3e 10 ef 30 3e ab 09 b1 3e 33 c3 f2 3d
       0.16449277 0.17278695 0.3457769 0.118536375
000350 00 a1 1c 3d e8 bf e2 3c fe 1a ac 3d 5e 79 9c 3d
       0.03823948 0.027679399 0.08403586 0.076403365
000360 c2 bc 98 bd c0 dd 32 bd a7 6e 26 bc 04 55 88 3d
       -0.07457878 -0.04366851 -0.0101582175 0.066568404
000370 ef 29 c2 3d 58 57 ad 3d 68 32 57 ba 89 92 e5 bc
       0.094806544 0.08463925 -0.000820911 -0.028023975
000380 8d 58 ac bc e7 3e 14 bd 5b 91 d6 bc 90 99 02 3d
       -0.021038318 -0.0361928 -0.026192358 0.03188473
000390 28 3a 7a 3d 72 f9 9f 3d 4d ff e0 bc 7a ea 03 bc
       0.06109062 0.0781125 -0.027465487 -0.008051509
0003a0 cd 52 0b 3d 27 85 70 3c 3d 96 5c bc 2b 43 db bc
       0.03401451 0.0146801835 -0.013463554 -0.026765427
0003b0 39 a7 0d bb c8 94 07 3d e9 d5 90 bc 6e 00 0b 3d
       -0.0021614565 0.033100873 -0.017680125 0.033935957
0003c0 74 02 76 bc 84 2b f1 3c ec 87 dd 3a 75 12 05 3d
       -0.015015233 0.029439695 0.001690147 0.032488305
0003d0 03 36 69 3d 67 4d fe 3d 9e 8c 39 3d 63 3a ec 3d
       0.056936275 0.12417107 0.04530012 0.11534574
0003e0 21 0e cd 3d 3f ac af 3d 01 86 b0 3e 5e 42 85 3e
       0.100124605 0.08577775 0.34477237 0.26027197
0003f0 2b 1c 69 3e 8f 2a 8f 3e f9 42 a8 3d 1e d6 9c 3d
       0.22764651 0.27962157 0.08215899 0.07658027

fc1.bias f4 [128]
000000 45 dd 27 3d 96 a6 8c bd 59 1a e0 bb cf 6f 0b 3d
       0.040982503 -0.06867711 -0.0068390784 0.034042176
000010 3f 65 00 bd 21 31 10 3d 74 ba ec 3c c5 ab 82 3d
       -0.031346556 0.035203103 0.028897502 0.06380419
000020 23 69 98 bd f6 be 98 bd 02 c0 8d 3a f0 e6 de bc
       -0.07441928 -0.07458298 0.0010814669 -0.027209729
000030 c0 6b 34 3c 25 ae 98 3b 78 d2 e7 3c 83 5f d5 3d
       0.011012018 0.0046594315 0.028298602 0.10418608
000040 e5 f2 21 bd 55 e3 83 3d 70 ec 5b bd 25 b0 48 bd
       -0.039538283 0.064398445 -0.05369228 -0.04899611
000050 75 0b b5 3c 3d 46 fb 3b db 3d ec bc dd 74 ac 3d
       0.02210019 0.007668285 -0.028838089 0.084207274
000060 55 70 6f 3c c7 75 ea 3d 20 47 2d bb 63 b3 19 bd
       0.014614184 0.114482455 -0.00264401 -0.037524592
000070 ba c2 c1 3b af 69 96 3d f5 ac 5c bb 22 d5 7e bd
       0.005913106 0.07344376 -0.0033672426 -0.062214978
000080 5f 65 42 3c d7 ca 19 bb ac 50 fa 3b c4 b0 4d bd
       0.011864989 -0.002346685 0.0076390114 -0.050217405
000090 5a 46 bb bd 50 4f 83 3c 73 27 98 3c 01 a3 4b 3d
       -0.09144278 0.01602903 0.018573498 0.049716
0000a0 32 48 1f bb 4d b1 8a 3d e9 6e 6c 3d 0c b2 ae bc
       -0.0024304506 0.06772099 0.05772296 -0.021325134
0000b0 9a bf 29 bd 8a d6 e3 3a 8b 31 15 bc a0 1e ca bc
       -0.04144249 0.0017382663 -0.00910605 -0.024672806
0000c0 e6 4b fc 3c 39 17 a0 bd c2 4d 11 bc 6f 4b 6c bd
       0.03079791 -0.07816929 -0.008868637 -0.057689127
0000d0 b5 d6 9a 3d 92 09 35 3d c9 f9 94 3c 27 89 c4 3d
       0.07560483 0.04419858 0.018185513 0.09596472
0000e0 50 b6 b8 3d 68 69 e5 3c 4b 3c d1 bd 41 e2 00 3d
       0.09019148 0.028004363 -0.10216578 0.031465773
0000f0 3e 52 ff 3d af ae e9 bc 7e 0b 94 bd a5 57 96 3c
       0.12466858 -0.028525678 -0.072287545 0.018352339
000100 df c7 17 bd c2 0c 7b 3d bd f2 73 bc 8a f4 c0 3d
       -0.037055846 0.061291464 -0.014889416 0.09421642
000110 4f aa be bc 17 31 44 bd db 75 af 3d 19 f2 0d 3d
       -0.023274569 -0.04789838 0.08567401 0.03465471
000120 3f be 7b bd b0 0f 78 bc 95 25 a1 3d 95 14 55 bd
       -0.06146073 -0.015140459 0.07868496 -0.05202158
000130 96 34 1f bd 96 a1 a1 bc 49 84 22 3d 35 4f 3f 3d
       -0.03886851 -0.01973037 0.03967694 0.046706397
000140 57 82 f0 3d 9c 92 41 bc dc f4 bc 3d 5d 22 2f bd
       0.1174361 -0.01181474 0.09226391 -0.04275738
000150 86 35 2f 3c 6b 0f 46 bd 3f c9 1d bd 02 f9 6e bd
       0.010693913 -0.048354547 -0.038522 -0.05834294
000160 5d 7c 40 bc e6 20 e4 bb 09 ba b9 3c ea 53 f4 bd
       -0.0117484005 -0.0069619296 0.022671716 -0.11930068
000170 19 fe 68 bc b2 33 37 bd 7c 73 c1 3c 52 f5 43 3c
       -0.014220738 -0.044727035 0.023614638 0.011960344
000180 e8 26 bc bd a3 b0 4f 3c 0b 44 60 bd 75 cf 83 bb
       -0.09187108 0.012676391 -0.05475239 -0.0040225335
000190 6d b9 75 bc 52 99 45 bd 82 19 75 3c 6d 6b 02 3e
       -0.014997822 -0.04824192 0.014959695 0.12736292
0001a0 c0 80 cb bb d5 3c 89 bd a5 0f 21 3e 3c 1a 97 bd
       -0.0062104166 -0.06701056 0.15728624 -0.07378051
0001b0 c9 e1 88 bd 4b 7d c3 bd 0c 0a d2 3d 03 b8 9d bd
       -0.0668369 -0.09545382 0.102558225 -0.07701113
0001c0 15 e6 c2 3d ba 06 11 3c b9 a2 90 3d 6d 09 06 3e
       0.09516541 0.008851701 0.07062287 0.13089533
0001d0 a4 8a 9f bc 4f fd 33 bd 47 b1 bf bd 38 e8 92 bb
       -0.019475289 -0.043942746 -0.09359985 -0.004483249
0001e0 3c 38 74 bc dd cf 09 3d b4 d0 48 ba d5 b6 63 3d
       -0.014905985 0.0336455 -0.0007660494 0.055594284
0001f0 3c 5c 87 3c 0c 55 85 bd 0b 73 61 bd 2f d9 64 3a
       0.016523473 -0.06510362 -0.055041354 0.00087298726

fc2.weight f4 [3, 128]
000000 7e d9 0b 3d 6e e8 49 be 37 8c 88 bc 74 89 a3 bd
       0.034142964 -0.19717571 -0.016668422 -0.079852015
000010 32 74 ac 3d c4 13 ab bb e3 61 92 3d 5b ca ae bd
       0.084206 -0.005220862 0.07147577 -0.0853469
000020 90 2a 5f 3d 35 ca 37 be 53 63 4e be fb 81 9b bd
       0.05448395 -0.1794823 -0.20155077 -0.07593151
000030 b1 f0 2c 3d 11 8d 5e ba 9c c5 a2 3d 81 62 1d 3e
       0.04222173 -0.00084896485 0.07947847 0.15369608
000040 e4 ab 98 bd 03 67 f8 3d 37 61 fe 3c 68 f4 b5 bd
       -0.074546605 0.12129023 0.031052215 -0.088845074
000050 4b c1 f1 bc 29 fc 97 3d 5d de 63 bd c8 30 8e bc
       -0.029511115 0.074211426 -0.055631984 -0.017357245
000060 07 4b 41 bc 49 04 cb 3d 36 7e 7f 3d 48 c2 88 bd
       -0.011797673 0.09912927 0.062376224 -0.06677681
000070 9e b3 87 3d c5 74 37 bd a2 7f fb bd 80 6a 35 be
       0.06626056 -0.044789094 -0.122802034 -0.17716408
000080 36 10 b8 3c ec 58 48 bd 4d e4 98 bd 97 1c 76 bc
       0.022468667 -0.048912928 -0.0746542 -0.015021465
000090 46 cb 42 be 1c 79 ff bc a4 66 58 bd 30 89 3c 3e
       -0.19022855 -0.03118568 -0.05283226 0.18411708
0000a0 2e f0 bf ba bb 09 0e 3d c1 3f 63 bd e3 1b 80 bc
       -0.0014643723 0.03467725 -0.055480722 -0.015638297
0000b0 ba ae f3 3c ed 55 32 be ca b5 11 bd c3 4f 8e bd
       0.029746402 -0.1741559 -0.03557376 -0.06948807
0000c0 4d 39 b1 3d e3 dd 98 bc 37 5a 69 b9 17 db 63 3d
       0.086535074 -0.018660491 -0.00022254219 0.055628862
0000d0 1a a5 6a 3c 7b c6 02 3e 64 a7 45 bd bc 6f 44 3e
       0.01432159 0.12771027 -0.04825534 0.19183248
0000e0 8f c1 ae 3d 3c 1e 1f 3e f9 69 24 be af ac 03 3e
       0.08533012 0.15538877 -0.1605605 0.12858842
0000f0 64 30 14 3e e7 0e 27 be 92 8d 9a 3a 5c c9 cb 3d
       0.14471585 -0.16314279 0.0011791459 0.09950516
000100 67 46 96 bd b2 40 fa 3c b0 8d 1b be a2 f1 ca 3d
       -0.07337647 0.030548427 -0.15190768 0.09909369
000110 37 ef 76 be 5f ff 1f be b3 72 0e 3e 3b df 67 3d
       -0.2411469 -0.1562476 0.13910942 0.056609374
000120 26 fc ba bd d0 90 0c 3d 62 8b 67 3d d1 83 31 be
       -0.09130125 0.03431779 0.05652941 -0.1733544
000130 ee d7 8e 3b c3 4a e1 bd 2d c8 b8 bd 0e e3 b6 3d
       0.004359237 -0.11000588 -0.090225555 0.08930026
000140 0d ef 2b 3e 29 e4 2e be 7b f4 38 3e 16 ca 5d b9
       0.1679041 -0.17079224 0.18062012 -0.00021151485
000150 3e 59 3d 3d 9a 84 5b 3d cd fe 4c bd 8f ab 0a be
       0.046227686 0.053593256 -0.050047684 -0.13542007
000160 53 4d 0c 3d 48 e3 6a bd fb 3b 19 bd 9f 6e fb bd
       0.03425343 -0.05734566 -0.037410717 -0.12276959
000170 a5 27 e7 ba 38 3a f2 39 f8 8c a5 3d 6d 7f 05 3d
       -0.0017635716 0.00046201213 0.08083528 0.032592226
000180 3c d5 3a be 4a 5c 8d bd 83 2d 8a 3c f4 9d c0 3d
       -0.18245405 -0.06902368 0.016867405 0.09405127
000190 b4 44 68 bd f4 7e e1 bd 9a 05 58 bd 85 47 21 3e
       -0.056706145 -0.110105425 -0.052739717 0.15749939
0001a0 2e 1e 8f 3d ba 06 38 be 55 63 fe 3d 7a 27 40 3d
       0.06988178 -0.17971316 0.1242129 0.046912648
0001b0 59 4b 5a 3d 91 68 06 be 66 bf da 3d 41 99 1e be
       0.053294513 -0.13125826 0.106810376 -0.15488149
0001c0 23 50 50 3c a2 c0 80 3c 36 97 6a 3d 16 28 f3 3d
       0.012714419 0.015716854 0.057273112 0.1187288
0001d0 44 16 4b be f0 e2 87 bc c6 38 7b be e0 05 a9 3d
       -0.19832712 -0.016587704 -0.24533376 0.08253074
0001e0 cf 53 8a 3d cc 0c 6b bc 46 e5 88 bd 81 82 a9 3d
       0.067542665 -0.014346313 -0.066843554 0.08276845
0001f0 fa 9c a8 bc f7 04 78 be f1 6f 92 bd c1 6b 37 3d
       -0.020582665 -0.24220644 -0.071502574 0.044780497
000200 c1 29 84 3c 61 6e 81 3e 8e 19 81 bd 39 41 96 bd
       0.016133191 0.25279525 -0.06303702 -0.07336659
000210 b9 24 e6 3d 5c ee c8 bd 06 93 3e be 8c 7e 61 be
       0.11237473 -0.098110884 -0.18610772 -0.2202093
000220 c4 5b 53 3d f6 01 11 bc ba b0 2f 3e 1b e6 07 3e
       0.051601186 -0.008850565 0.1715726 0.13271372
000230 c0 2d 1a 3d 09 f7 eb 3c 65 78 35 3c 47 d2 44 bd
       0.037641287 0.028804319 0.011076068 -0.0480521
000240 59 9a 09 3e 74 39 a6 3d b3 94 15 3d a4 18 29 be
       0.13437785 0.08116427 0.036518764 -0.16513306
000250 78 f7 8c bd 59 37 b7 bd 01 56 b1 bd 36 79 34 be
       -0.068831384 -0.089461036 -0.08658982 -0.17624363
000260 dd 49 73 3c 7e a7 39 bd fd 68 99 bd e8 80 9c 3d
       0.014849153 -0.04532575 -0.07490728 0.076417744
000270 86 39 c6 3d 50 c1 13 be 9a b9 6f 3e dc f0 11 3e
       0.096789405 -0.14429212 0.23410645 0.14252037
000280 4f 27 26 be 12 aa 58 bd c8 70 5a bb 72 43 20 3d
       -0.16225933 -0.052896567 -0.0033331383 0.03912682
000290 f0 61 78 3e 8b 51 18 be 9f 86 d2 3b a5 d6 7a bd
       0.2425611 -0.14874856 0.0064247395 -0.061239857
0002a0 23 dd 8a 3c c4 13 24 be 54 d5 14 be 28 0a a3 3c
       0.01695115 -0.16023165 -0.14534503 0.019902304
0002b0 b4 4a e4 3d d4 7e 68 3e 05 2b 30 bd 32 5b 88 bd
       0.11147061 0.22704631 -0.043009777 -0.06658019
0002c0 bc 3b ce 3d 0c 02 fd 3d a9 5a 10 bd 57 13 83 3d
       0.10069987 0.12353906 -0.03524271 0.06400173
0002d0 00 e9 3b be db 68 bd bd 0a 6c 64 bd e0 e6 ed bd
       -0.18350601 -0.09248515 -0.055767097 -0.116163015
0002e0 6e d2 41 be 86 83 24 be 77 15 d2 3d c3 a2 05 be
       -0.18927929 -0.16065797 0.10258 -0.1305037
0002f0 fa 5c 1c be a8 ad 74 bd ca f4 50 bd a1 0a af 3d
       -0.15269843 -0.059735924 -0.0510147 0.08546949
000300 42 4e 51 bc c2 c1 45 be 6b 7f 46 3e 7c 76 e9 bd
       -0.012775006 -0.19312194 0.19384544 -0.11399552
000310 6c 0c 0a 3e 32 20 71 3d 25 00 04 be 05 fd c4 bc
       0.13481301 0.058868594 -0.1289068 -0.02404643
000320 d8 46 1f 3e c2 b9 09 3d 77 88 de bd a0 c4 84 3d
       0.15554368 0.033624418 -0.10865872 0.06482816
000330 78 3e ad bd 74 c9 b5 bd 6f 0f 6b be ae 80 51 3d
       -0.084591806 -0.08876315 -0.22955106 0.05114811
000340 cc ab 26 be 19 f1 7d 3e 25 18 36 be 7c cf 1e 3d
       -0.16276473 0.24799003 -0.17782648 0.03877209
000350 e9 d2 e4 3c 3c 46 51 3d c5 ea 0c bd bc aa 30 3d
       0.027932601 0.05109237 -0.03440358 0.043131575
000360 9b c7 9d b7 3a ae 51 3d cd 8b 11 bb f4 4a 40 3e
       -1.8808807e-05 0.051191546 -0.0022208572 0.18778592
000370 21 4f 81 3c 65 d8 86 3d ae 25 98 3d 2f 5f 30 bd
       0.015784802 0.06584243 0.07429062 -0.043059524
000380 1b 44 29 3e 9b f7 e1 bd 6d 65 5c 3d 24 91 fa 3d
       0.16529886 -0.11033555 0.053807665 0.122347146
000390 6a fb 47 bd ca 43 fc bc e6 71 49 bd 95 7f 22 be
       -0.04882375 -0.030794043 -0.049180888 -0.15868981
0003a0 f9 c9 7b 3d 7c 6f b4 3d 8f 8a 39 be f9 1e 4d be
       0.061471913 0.088103265 -0.18119262 -0.20031346
0003b0 eb 8d 83 bd a3 bc d8 bb 9d 7e 11 be e7 43 2e 3e
       -0.06423553 -0.006614284 -0.14208455 0.1701809
0003c0 aa ed 7b be 10 23 83 bd 75 fb f1 bb fd 81 62 be
       -0.2460238 -0.06403172 -0.0073847123 -0.22119899
0003d0 92 e2 5b 3e 92 09 d1 3b 53 19 7d 3e 7a f7 ad 3d
       0.21473148 0.0063793147 0.24716692 0.08494468
0003e0 e2 fa b4 bc fa c3 fa bc 1c b9 3f bd 7b 82 bf bc
       -0.022092286 -0.030611027 -0.046807393 -0.023377648
0003f0 9c 36 65 3c e8 ea 3a 3e 56 81 ba bd 9d 84 56 3d
       0.013990071 0.18253672 -0.091067 0.052372564

fc2.bias f4 [3]
000000 af 09 db 3d 15 75 1c 3d f6 64 b1 bd
       0.106952064 0.038197596 -0.08661835
