checkpoints/CNN_fold_2.pth (torch, 225380 bytes, 8 tensors)

conv1.weight f4 [16, 4, 3]
-0.15432933 0.007900753 0.017538209 -0.0629456 -0.2844803 0.20044443 -0.027535249 0.0074979565
-0.07507229 -0.18760572 -0.110413276 -0.32839304 -0.085307166 -0.43307608 -0.46308252 -0.0013786012
-0.24259987 0.02482698 0.051578883 0.1651273 0.0355819 -0.1271054 0.12681575 0.07111147
0.010615137 -0.17930979 -0.16429208 -0.004387612 -0.30854574 -0.12518547 0.28330663 -0.004353293
-0.007961294 -0.19637331 0.29426152 -0.07226969 0.55176383 0.14146605 0.42569715 -0.28375396
0.15943088 -0.046745937 -0.016334979 -0.341924 0.07444833 0.05726499 -0.18973036 0.15161638
0.29903248 0.036713384 0.07056504 0.33173028 0.12472676 0.15272535 -0.2565461 -0.034149013
-0.07323607 -0.15941831 -0.092430815 0.07615276 -0.1323807 0.28277782 0.15037045 0.15926142
-0.15501101 0.18560047 0.13803196 -0.07859843 0.14083098 -0.30189604 -0.027450804 0.064569294
-0.30156556 -0.1529657 -0.37719718 -0.20377684 -0.18783194 -0.1857009 0.2094582 -0.026363246
0.05963422 -0.15158941 0.18816297 0.1602364 -0.14522812 0.15038656 0.120384626 -0.294586
-0.15879221 -0.2865722 -0.16252916 -0.06572678 0.15987387 0.10317738 -0.02366994 -0.029706487
0.15326416 0.37298045 0.033906963 0.11633322 0.19383809 0.3102023 0.07881814 -0.24175635
0.1279949 0.043672245 -0.16220045 0.23276371 0.24718182 0.27735093 0.23661058 0.087293744
0.14172605 0.12650052 0.21739638 -0.25992605 -0.25087634 -0.29621106 -0.037591618 0.056157317
0.14171612 0.16269691 -0.12128787 -0.08690435 0.055938255 -0.090449914 -0.2703635 -0.2795563
-0.26176482 -0.23329484 0.3252662 0.2894446 -0.15000094 -0.2783302 -0.041731555 0.19463693
0.0742663 0.08591004 0.19554302 0.27470466 0.3012595 0.26835537 0.013521292 0.035771035
0.11573094 -0.15314129 0.15691501 -0.35812336 -0.17821798 -0.15892202 -0.06668505 -0.049570095
-0.040224712 0.23954803 -0.084762566 -0.19920842 -0.32069725 -0.28597063 -0.28750548 -0.14116254
-0.33970708 -0.014277609 -0.016180674 -0.18338135 0.06978377 -0.009446788 -0.022592574 -0.2949524
0.28284085 0.17000462 -0.07464359 -0.081526354 0.28766412 0.3592161 -0.19144157 -0.15078783
-0.21227759 -0.5130429 -0.43325466 0.043557327 0.17605938 -0.23945363 0.19901206 -0.29481277
-0.07572755 -0.006024862 0.10706286 0.0430524 0.19490956 -0.1253221 -0.18018374 -0.22106317
00000000: 8208 1ebe 2972 013c 4aac 8f3c 9fe9 80bd
00000010: 67a7 91be 4e41 4d3e 9a91 e1bc 6bb1 f53b
00000020: 80bf 99bd b71b 40be 5b20 e2bd 2223 a8be
00000030: 86b5 aebd 26bc ddbe 2719 edbe 2eb2 b4ba
00000040: 1a6c 78be f361 cb3c 6144 533d 2217 293e
00000050: 54be 113d eb27 02be fddb 013e e4a2 913d
00000060: 1deb 2d3c fc9c 37be 2f3c 28be f5c5 8fbb
00000070: b5f9 9dbe 9f30 00be 910d 913e 12a6 8ebb
00000080: 1670 02bc 1616 49be 72a9 963e 2202 94bd
00000090: 6540 0d3f 7adc 103e faf4 d93e 3348 91be
000000a0: d941 233e ab78 3fbd efd0 85bc aa10 afbe
000000b0: 5e78 983d b28e 6a3d ad48 42be 5341 1b3e
000000c0: c91a 993e c660 163d 6784 903d 8dd8 a93e
000000d0: be70 ff3d 0964 1c3e 035a 83be d6df 0bbd
000000e0: cbfc 95bd 8e3e 23be 5e4c bdbd faf5 9b3d
000000f0: ce8e 07be 41c8 903e b6fa 193e 6d15 233e
00000100: 35bb 1ebe 0d0e 3e3e 4058 0d3e 37f8 a0bd
00000110: ff35 103e 1e92 9abe 82e0 e0bc e83c 843d
00000120: cd66 9abe 0aa3 1cbe fd1f c1be e0aa 50be
00000130: 0457 40be 6028 3ebe 367c 563e bcf7 d7bc
00000140: 0343 743d 413a 1bbe cbad 403e 0315 243e
00000150: aeb6 14be effe 193e 378c f63d fad3 96be
00000160: 6d9a 22be 97b9 92be 0b6e 26be c39b 86bd
00000170: fab5 233e aa4e d33d 76e7 c1bc 055b f3bc
00000180: 48f1 1c3e 4bf7 be3e 07e2 0a3d 1c40 ee3d
00000190: 7e7d 463e d6d2 9e3e 686b a13d fa8e 77be
000001a0: 1811 033e abe1 323d e017 26be 9c59 6e3e
000001b0: 3b1d 7d3e f100 8e3e 0b4a 723e 10c7 b23d
000001c0: a220 113e 5a89 013e 289d 5e3e 0715 85be
000001d0: dd72 80be faa8 97be abf9 19bd 3705 663d
000001e0: 081e 113e 059a 263e c665 f8bd e8fa b1bd
000001f0: 831f 653d ce3d b9bd 166d 8abe 0122 8fbe
00000200: 0a06 86be d8e4 6ebe 4b89 a63e 1532 943e
00000210: d999 19be 4c81 8ebe b5ee 2abd e74e 473e
00000220: ee18 983d 9af1 af3d 6e3c 483e 17a6 8c3e
00000230: af3e 9a3e e065 893e 6988 5d3c a684 123d
00000240: 5804 ed3d 12d1 1cbe 54ae 203e f25b b7be
00000250: c67e 36be 74bc 22be 2c92 88bd 030a 4bbd
00000260: abc2 24bd 144c 753e ff97 adbd 4bfd 4bbe
00000270: 6e32 a4be be6a 92be eb33 93be ea8c 10be
00000280: 16ee adbe a2ec 69bc 558d 84bc 52c8 3bbe
00000290: cbea 8e3d b3c6 1abc 1014 b9bc 0004 97be
000002a0: 84d0 903e b115 2e3e bdde 98bd 4af7 a6bd
000002b0: b648 933e 2ceb b73e 4209 44be 2068 1abe
000002c0: 4c5f 59be c856 03bf 8ed3 ddbe 2b69 323d
000002d0: e948 343e 5533 75be d1c9 4b3e b3f1 96be
000002e0: 0c17 9bbd 356c c5bb c643 db3d b757 303d
000002f0: 5f96 473e 7054 00be 1682 38be 625e 62be

conv1.bias f4 [16]
-0.06830229 -0.29593146 0.16709293 -0.10316646 0.09860315 0.2614093 -0.15986145 -0.11168211
0.27873307 0.19328135 -0.16367945 0.051696304 -0.09384494 0.19583033 -0.14389856 -0.15489319
00000000: 12e2 8bbd 5484 97be 691a 2b3e f048 d3bd
00000010: 73f0 c93d 71d7 853e b8b2 23be 97b9 e4bd
00000020: 1ab6 8e3e 8ceb 453e 969b 27be 81bf 533d
00000030: c731 c0bd bf87 483e 255a 13be 529c 1ebe

conv2.weight f4 [32, 16, 3]
-0.15611163 -0.050647855 -0.013966499 0.14827766 0.061215177 0.065904506 0.038749926 -0.07004948
0.15237346 -0.117830314 -0.03672182 0.17377163 -0.23113276 0.07521181 0.03414683 -0.17665029
0.06556708 -0.20554976 0.17182995 0.083157 0.23281206 0.2346508 0.15885317 0.020073041
0.042871922 -0.08203103 -0.12692189 -0.004407714 0.03457659 0.00017514089 0.123093344 -0.078773215
-0.016782546 0.052647494 -0.030815717 0.028635416 0.08730024 0.16379121 0.22184728 -0.005714488
-0.080828644 -0.08284159 -0.078575306 -0.041066557 0.09350035 0.008469379 -0.027886735 -0.092647605
-0.055426497 0.033752896 -0.03345541 -0.07871535 -0.30553097 -0.27016678 0.085942894 -0.13781944
0.06032994 -0.0068396176 -0.0650896 0.0085133035 0.100608006 0.071452215 0.040948894 0.10198655
0.10571201 0.11202145 -0.04895466 -0.18322262 -0.17984578 -0.048480913 0.060758997 -0.09217889
0.094058745 0.0068952725 0.11539423 -0.16045663 -0.21259443 -0.19179495 -0.03588236 -0.10494248
0.07281195 0.0070879925 -0.016517969 0.1541374 -0.11235636 0.07063609 0.026076382 -0.054180175
0.01268714 -0.026687734 0.09029478 0.039766558 0.13583653 0.090601765 -0.08630734 -0.12903783
0.11485573 0.1206431 -0.010353001 0.07850065 -0.115776636 0.060104456 -0.019861698 -0.5645066
-0.07107534 0.07608091 0.40334222 0.2954435 0.114134565 0.178256 0.22602163 0.017719693
0.16404921 -0.13509981 -0.0362073 0.113226034 -0.20560266 -0.1128398 -0.1388985 -0.012672346
0.0996969 -0.02803999 0.01673178 0.045037106 0.14014368 0.0821165 0.011978722 -0.060955647
-0.17736062 0.021023937 -0.2910584 0.009679673 -0.15013744 -0.14941756 -0.066852316 -0.00507337
0.037585687 -0.07822723 0.17881721 0.2260302 0.10338133 0.05041755 -0.0318928 0.034610607
-0.06627454 -0.13376248 -0.1737043 -0.021470565 -0.305613 -0.17934118 -0.02507084 0.016248938
-0.009254627 -0.21437322 -0.08495156 -0.07030427 -0.16422321 0.028818322 0.0015328807 -0.038235825
0.11074014 0.112948515 0.0059632533 -0.049260356 -0.10679064 -0.06815282 -0.12058678 -0.008903297
0.040566817 0.22504751 0.15254557 0.011281997 -0.17194402 -0.01004871 0.007624001 -0.07564248
-0.22242928 0.108721375 -0.08243398 -0.088379405 -0.04847849 -0.11524148 -0.014051138 0.042658135
-0.051650707 -0.1739332 0.14516653 -0.079516344 0.08119225 -0.06649855 -0.13742626 0.07382347
-0.0026838926 -0.07479573 -0.010707319 0.091543786 -0.113802835 -0.19988252 -0.15041119 0.062458266
-0.1977886 -0.15722266 -0.10128234 -0.31306696 -0.12050948 0.00552703 -0.0576243 -0.045143194
0.08789853 -0.13590151 0.003821746 0.090346046 -0.1391363 -0.18093535 0.056531712 -0.091919206
-0.033325296 -0.06042294 -0.07877755 -0.05886523 0.14929853 -0.19022535 -0.057261992 0.2865677
0.16661261 -0.0124132335 -0.10275913 -0.01198642 -0.11604747 0.019749658 -0.05271332 -0.05807815
-0.027944589 0.12822051 -0.04620549 0.15740272 0.021681193 -0.02461679 0.052008756 -0.08932109
-0.06511938 -0.039942276 -0.10796105 -0.17761508 0.025188187 0.08878202 -0.1337262 -0.049570356
0.025910148 -0.22619016 -0.24086405 -0.10434043 -0.0002879654 -0.108361416 -0.061694283 -0.12703751
00000000: badb 1fbe 2074 4fbd bed3 64bc 19d6 173e
00000010: c4bc 7a3d f1f8 863d 3eb8 1e3d 1a76 8fbd
00000020: ca07 1c3e 0551 f1bd 9e69 16bd 31f1 313e
00000030: 11ae 6cbe a608 9a3d 8cdd 0b3d d0e3 34be
00000040: 0948 863d a37b 52be 31f4 2f3e 384e aa3d
00000050: 4966 6e3e 4d48 703e 68aa 223e 3870 a43c
00000060: 789a 2f3d e2ff a7bd d0f7 01be 966e 90bb
00000070: 2fa0 0d3d 06a6 3739 5d18 fc3d da53 a1bd
00000080: 8d7b 89bc e6a4 573d 3e71 fcbc d294 ea3c
00000090: 78ca b23d e2b8 273e ef2b 633e 9a40 bbbb
000000a0: 7d89 a5bd daa8 a9bd 17ec a0bd 6835 28bd
000000b0: 1d7d bf3d 26c3 0a3c b972 e4bc 07be bdbd
000000c0: e506 63bd 7a40 0a3d 8a08 09bd 8335 a1bd
000000d0: 8e6e 9cbe 4d53 8abe d402 b03d 8a20 0dbe
000000e0: 871c 773d df1e e0bb b24d 85bd 627b 0b3c
000000f0: 920b ce3d 8a55 923d 07ba 273d 53de d03d
00000100: 8a7f d83d 816b e53d ae84 48bd b69e 3bbe
00000110: 7e29 38be ec93 46bd 6dde 783d 49c8 bcbd
00000120: dfa1 c03d bdf1 e13b cf53 ec3d be4e 24be
00000130: 5bb2 59be e565 44be 62f9 12bd 15ec d6bd
00000140: 6f1e 953d 6442 e83b b150 87bc 32d6 1d3e
00000150: 171b e6bd a8a9 903d 239e d53c 08ec 5dbd
00000160: b9dd 4f3c 3ca0 dabc 78ec b83d 42e2 223d
00000170: bb18 0b3e 6b8d b93d e7c1 b0bd 7e22 04be
00000180: 7b39 eb3d bb13 f73d a29f 29bc f3c4 a03d
00000190: 4d1c edbd 1730 763d 00b5 a2bc 8183 10bf
000001a0: f38f 91bd 4fd0 9b3d df82 ce3e 5f44 973e
000001b0: 62bf e93d be88 363e 3772 673e e428 913c
000001c0: 84fc 273e 9b57 0abe 1b4e 14bd 0de3 e73d
000001d0: 8189 52be 8e18 e7bd 693b 0ebe ac9f 4fbc
000001e0: e32d cc3d 1fb4 e5bc 1611 893c d478 383d
000001f0: d381 0f3e b22c a83d 6742 443c a1ac 79bd
00000200: 069e 35be 643a ac3c 9b05 95be 7e97 1e3c
00000210: a1bd 19be eb00 19be dee9 88bd 833e a6bb
00000220: 73f3 193d 9935 a0bd dc1b 373e 7674 673e
00000230: 97b9 d33d a282 4e3d 06a2 02bd dac3 0d3d
00000240: f2ba 87bd 08f9 08be 8adf 31be 0ae3 afbc
00000250: 4f79 9cbe 37a5 37be 5d61 cdbc 7e1c 853c
00000260: b8a0 17bc a784 5bbe 15fb adbd affb 8fbd
00000270: 212a 28be 6714 ec3c f1ea c83a 2b9d 1cbd
00000280: bacb e23d 8d51 e73d 6567 c33b 3ac5 49bd
00000290: 0db5 dabd b593 8bbd 34f6 f6bd 22df 11bc
000002a0: 6429 263d db72 663e e834 1c3e 20d8 383c
000002b0: 1812 30be 58a3 24bc c1d2 f93b 72ea 9abd
000002c0: 80c4 63be 50a9 de3d 26d3 a8bd 4300 b5bd
000002d0: 6291 46bd ba03 ecbd bf36 66bc 4cba 2e3d
000002e0: b18f 53bd 8b1b 32be 89a6 143e 77d9 a2bd
000002f0: 1f48 a63d 6430 88bd 78b9 0cbe c230 973d
00000300: 3fe4 2fbb 812e 99bd c06d 2fbc 4f7b bb3d
00000310: 7611 e9bd 01ae 4cbe 6405 1abe 3dd4 7f3d
00000320: 1889 4abe fafe 20be 1e6d cfbd 504a a0be
00000330: adcd f6bd 171c b53b 7507 6cbd 12e8 38bd
00000340: 2504 b43d c429 0bbe 4276 7a3b 5907 b93d
00000350: bf79 0ebe 1e47 39be cc8d 673d 2340 bcbd
00000360: 1b80 08bd 0b7e 77bd 2056 a1bd ab1c 71bd
00000370: b7e1 183e 6fca 42be 8d8b 6abd 00b9 923e
00000380: 7f9c 2a3e e060 4bbc 6173 d2bd b062 44bc
00000390: 4caa edbd 09ca a13c ece9 57bd 5be3 6dbd
000003a0: 0dec e4bc 3d4c 033e f841 3dbd 2e2e 213e
000003b0: c29c b13c 26a9 c9bc 2207 553d faed b6bd
000003c0: 4f5d 85bd 839a 23bd af1a ddbd bae0 35be
000003d0: 7557 ce3c 59d3 b53d 85ef 08be 490a 4bbd
000003e0: 8541 d43c 659e 67be 11a5 76be 6fb0 d5bd
000003f0: 10fa 96b9 97ec ddbd 25b3 7cbd 1f16 02be

conv2.bias f4 [32]
-0.10520966 0.060135208 -0.03440783 0.21368343 0.17223136 0.1192624 0.13635579 0.15669203
-0.062132504 -0.21262914 -0.09114549 -0.14309162 0.17414175 0.22169481 0.08959704 -0.018503156
0.10023254 -0.09766542 0.13531259 -0.109032504 -0.025759725 -0.114326455 0.15255935 0.061298426
-0.079536006 -0.16415285 -0.010393092 0.02803776 0.19186445 -0.079078466 0.0834458 0.040208828
00000000: 2a78 d7bd 5650 763d 3aef 0cbd d4cf 5a3e
00000010: 6b5d 303e d83f f43d daa0 0b3e e073 203e
00000020: a77e 7ebd 74bb 59be 7daa babd 9c86 12be
00000030: 3752 323e f703 633e a77e b73d ee93 97bc
00000040: b846 cd3d cf04 c8bd 628f 0a3e 6f4c dfbd
00000050: 0f06 d3bc fd23 eabd 8538 1c3e 0f14 7b3d
00000060: c6e3 a2bd af17 28be ca47 2abc 72af e53c
00000070: 1d78 443e e4f3 a1bd a2e5 aa3d 03b2 243d

fc1.weight f4 [128, 416]
0.0011010051 -0.14240162 -0.16441943 -0.18201144 -0.15550207 0.025316974 0.037339535 -0.07383734
-0.09700137 -0.08187407 -0.16676737 0.037302323 0.062716044 -0.20764616 -0.046663057 0.0143621545
0.05117265 0.011828511 -0.0041242023 -0.038644914 0.0054260646 -0.023580613 0.07296762 0.014666114
-0.19545777 -0.29344591 -0.23255822 0.03072089 -0.033621766 -0.20074524 0.016707994 -0.027151689
0.0037166418 0.048958194 0.020632926 0.20158674 -0.09433246 -0.0049753007 -0.02911311 -0.26909602
-0.008125769 0.06849153 0.0028164212 0.007321356 0.0034430018 -0.023403866 -0.02581597 -0.021244984
0.010410478 -0.026172126 -0.3097544 -0.24432266 0.07757827 0.13245395 0.049424335 -0.0041728118
0.11519042 0.1087913 0.024972456 0.023253696 0.047719285 -0.02778823 -0.07066593 0.11614212
0.043301914 -0.070946135 -0.0060582208 -0.10931129 -0.19864208 -0.16592519 -0.00045023125 -0.048468806
-0.21393529 -0.07139456 -0.030434584 -0.13916175 -0.026658121 -0.0037584568 0.009478963 0.040317316
-0.4732175 -0.16444474 0.0015612952 0.036513608 -0.02584923 -0.040870097 -0.03992234 -0.23139821
0.027080258 0.07803576 0.039465975 0.093400516 0.10118789 -0.4175423 -0.37947655 -0.14503716
-0.111990064 -0.02795092 -0.14686732 0.044660427 -0.08269889 -0.11632196 0.057121612 0.045452196
-0.2116645 -0.15637645 -0.11887124 0.024053585 -0.017681563 0.07024367 -0.049919043 -0.025770096
-0.12721393 -0.106123745 0.015779756 0.09982779 0.060437974 -0.10909091 -0.1316881 -0.01378173
0.021832995 -0.019037077 0.05218246 -0.06006207 -0.19040298 -0.17945655 0.025736528 -0.014109065
0.039141066 -0.03952802 -0.15392148 0.07628416 0.1928845 -0.016817255 -0.10745635 0.03115933
-0.029779188 -0.10643913 -0.1336872 0.07609442 0.08681191 -0.095007785 0.00028939894 0.04809382
-0.026993278 -0.009690953 -0.009743504 0.003762311 0.00895728 -0.030198794 -0.046114426 -0.030903956
-0.026931772 -0.014653566 -0.010622577 -0.03132736 -0.13165832 0.022629403 0.15154687 0.054997623
0.15371801 0.15927178 0.15193027 -0.06605264 -0.08277686 -0.060258847 0.20387661 0.10948686
0.13811019 -0.021980753 0.079974115 -0.12652834 -0.14273465 -0.016595267 -0.034094047 0.0035367615
-0.09807344 -0.009145876 -0.10705181 -0.3166283 -0.07840252 -0.025050972 0.016139016 0.003968099
-0.053816848 -0.03943604 -0.022354374 -0.01106933 -0.005888903 -0.035347074 -0.030323144 -0.038093768
0.009526268 0.058287695 -0.03569883 0.07361013 0.09435616 0.04244986 -0.096267596 -0.034364223
0.04793571 0.05344873 -0.15917383 -0.22508685 -0.09466223 -0.29368198 0.1267291 0.11048206
0.107954465 0.12639123 0.11268253 0.12558976 0.023518741 0.07322111 0.074700974 0.050901487
-0.02480219 -0.023987118 -0.05514643 -0.11448332 0.052590974 0.06297635 0.04223192 -0.046720028
-0.16697133 -0.10664348 0.062285602 0.0792322 -0.050345052 -0.13095228 -0.24127315 -0.4457325
0.12900831 0.08054719 -0.00046850485 0.13191263 -0.004523942 -0.08625311 -0.10481344 -0.01756312
-0.030222889 -0.1436883 -0.0045628245 -0.0070372587 -0.23494397 0.06451479 -0.008571958 -0.043525666
-0.0067911567 -0.010168739 0.050306056 -0.065615386 0.028961016 0.009575073 -0.0036795058 -0.017606577
00000000: 9a4f 903a bbd1 11be 915d 28be 3561 3abe
00000010: ef3b 1fbe 8b65 cf3c 57f1 183d 0838 97bd
00000020: a7a8 c6bd 98ad a7bd 11c5 2abe 52ca 183d
00000030: 4571 803d 32a1 54be c321 3fbd 3e4f 6b3c
00000040: 6a9a 513d 5fcc 413c 5124 87bb 214a 1ebd
00000050: 21cd b13b 212c c1bc 0c70 953d 244a 703c
00000060: 1526 48be 8b3e 96be be23 6ebe 60aa fb3c
00000070: fab6 09bd 2990 4dbe 34df 883c 386d debc
00000080: e792 733b 6388 483d 6206 a93c c16c 4e3e
00000090: 6031 c1bd d907 a3bb 9e7e eebc f4c6 89be
000000a0: f221 05bc 4a45 8c3d b593 383b fce7 ef3b
000000b0: fca3 613b 77b9 bfbc 037c d3bc f609 aebc
000000c0: b690 2a3c ed66 d6bc 2198 9ebe b82f 7abe
000000d0: 5be1 9e3d 02a2 073e 2c71 4a3d 15bc 88bb
000000e0: f4e8 eb3d f9cd de3d 0993 cc3c 897e be3c
000000f0: 4c75 433d 24a4 e3bc 4db9 90bd ebdb ed3d
00000100: 595d 313d 354c 91bd 0a84 c6bb 99de dfbd
00000110: d468 4bbe 4be8 29be 040d ecb9 3a87 46bd
00000120: da11 5bbe 5037 92bd f351 f9bc 6b80 0ebe
00000130: 2262 dabc 7150 76bb a74d 1b3c c523 253d
00000140: 9049 f2be 3464 28be 60a4 cc3a 4b8f 153d
00000150: c4c1 d3bc 6767 27bd 9c85 23bd a7f3 6cbe
00000160: 6bd7 dd3c 36d1 9f3d 13a7 213d c548 bf3d
00000170: 993b cf3d 1bc8 d5be c04a c2be 9f84 14be
00000180: 0c5b e5bd 54f9 e4bc 6364 16be daed 363d
00000190: 095e a9bd 353a eebd 5af8 693d 152c 3a3d
000001a0: 94be 58be 2621 20be c472 f3bd 060c c53c
000001b0: edd8 90bc eadb 8f3d e977 4cbd cf1b d3bc
000001c0: 5e44 02be 6857 d9bd 8c44 813c 8372 cc3d
000001d0: cf8d 773d 0e6b dfbd 3fd9 06be c4cc 61bc
000001e0: 1cdb b23c a5f3 9bbc 46bd 553d a503 76bd
000001f0: 00f9 42be 75c3 37be 69d5 d23c b529 67bc
00000200: 6252 203d 22e8 21bd 989d 1dbe df3a 9c3d
00000210: 8483 453e 57c4 89bc 1312 dcbd da41 ff3c
00000220: 7cf3 f3bc c2fc d9bd 4ce5 08be 64d7 9b3d
00000230: 71ca b13d 7193 c2bd 78ba 9739 07fe 443d
00000240: 0221 ddbc cec6 1ebc 38a3 1fbc 1b91 763b
00000250: 8ec1 123c 7663 f7bc 7be2 3cbd 4b2a fdbc
00000260: 05a0 dcbc 8315 70bc 510a 2ebc 1e51 00bd
00000270: 70d1 06be 4c61 b93c 1a2f 1b3e 3045 613d
00000280: 4168 1d3e 2418 233e 9c93 1b3e 9b46 87bd
00000290: ea86 a9bd fbd1 76bd 08c5 503e a63a e03d
000002a0: c26c 0d3e fb10 b4bc 78c9 a33d a590 01be
000002b0: 0829 12be ccf2 87bc 33a6 0bbd 03c9 673b
000002c0: bada c8bd 96d8 15bc fb3d dbbd 1b1d a2be
000002d0: 8091 a0bd b237 cdbc f835 843c d406 823b
000002e0: 0e6f 5cbd af87 21bd 8520 b7bc 235c 35bc
000002f0: b3f7 c0bb 18c8 10bd 3e68 f8bc 3608 1cbd
00000300: 1014 1c3c 14bf 6e3d f038 12bd e8c0 963d
00000310: cd3d c13d e8df 2d3d f227 c5bd 80c1 0cbd
00000320: 3c58 443d 0eed 5a3d 77fe 22be 2b7d 66be
00000330: 45de c1bd 7c5d 96be 46c5 013e 6b44 e23d
00000340: 3b17 dd3d b46c 013e 19c6 e63d 9a9a 003e
00000350: 60aa c03c f3f4 953d d3fc 983d 147e 503d
00000360: f62d cbbc a280 c4bc 39e1 61bd 3b76 eabd
00000370: a269 573d bff9 803d 61fb 2c3d 805d 3fbd
00000380: 88fa 2abe e667 dabd 301f 7f3d 7e44 a23d
00000390: 9d36 4ebd 5b18 06be 4f10 77be 0d37 e4be
000003a0: c11a 043e edf5 a43d a8a1 f5b9 1b14 073e
000003b0: 933d 94bb 78a5 b0bd 6ea8 d6bd 88e0 8fbc
000003c0: fe95 f7bc 0723 13be bf83 95bb ce98 e6bb
000003d0: 2795 70be 5520 843d 6671 0cbc f847 32bd
000003e0: 5a88 debb c89a 26bc b90d 4e3d 5c61 86bd
000003f0: a73f ed3c c4e0 1c3c dd23 71bb ab3b 90bc

fc1.bias f4 [128]
-0.10459339 -0.108283 -0.031826008 0.032129906 -0.009605644 0.01809462 -0.09296111 0.09857276
0.02886419 -0.050959498 0.08018057 -0.109706506 0.020520527 0.015391911 -0.074729316 -0.057548266
0.010338864 -0.047365602 -0.0043427236 0.033469353 0.065790534 -0.05175943 0.006688218 0.08229558
0.1157232 0.040264472 -0.08515479 -0.069821745 0.05660374 -0.05698107 -0.030027626 0.038645178
0.08012914 -0.034173686 0.07784138 0.028293978 -0.05056889 0.053710595 -0.06713995 -0.005423818
-0.046694953 -0.027881708 -0.031138157 -0.02337035 -0.08521329 -0.08013533 -0.039749194 0.08262148
-0.028727854 -0.06742071 0.09342327 0.11612476 -0.04752812 -0.020590587 -0.042046368 -0.0735517
-0.05475829 0.046549167 0.021576246 0.08005444 0.05209285 0.007193967 0.09195535 -0.013849623
-0.056419104 0.048444536 0.019979935 -0.045983158 -0.11376685 0.026889147 0.07202972 -0.0490502
-0.08885565 -0.049140457 -0.084139034 0.06091624 -0.023476623 -0.022954341 0.11738185 -0.067406245
0.06465308 0.036298845 -0.060206156 0.02143604 -0.04167659 -0.011013845 -0.01614178 0.025742546
0.054308 0.022520639 -0.1064281 -0.11785412 0.040006984 0.06878975 0.013166541 0.049304057
0.08202335 -0.052626885 -0.030087693 -0.03391546 -0.03834189 0.04585226 -0.0392755 0.004511547
-0.058248322 0.06943118 -0.05863976 0.0035214894 0.09914656 -0.08986473 -0.09059072 0.002128783
0.041275498 0.022208367 -0.04130949 -0.06826046 -0.053408857 0.083702125 -0.060341418 -0.023872305
0.08724502 -0.11476065 -0.037841547 0.034437474 -0.0505128 0.047080208 -0.015809841 -0.1109486
00000000: 0f35 d6bd 7ac3 ddbd fd5b 02bd a69a 033d
00000010: fe60 1dbc 2b3b 943c 6562 bebd 84e0 c93d
00000020: 9874 ec3c e8ba 50bd b635 a43d cead e0bd
00000030: aa1a a83c 5b2e 7c3c af0b 99bd bbb7 6bbd
00000040: 5764 293c 6f02 42bd 684d 8ebb 2917 093d
00000050: 30bd 863d b201 54bd d728 db3b 968a a83d
00000060: 4900 ed3d 5cec 243d a265 aebd b4fe 8ebd
00000070: 53d9 673d fc64 69bd 7ffc f5bc 684a 1e3d
00000080: bf1a a43d b5f9 0bbd 4d6b 9f3d c6c8 e73c
00000090: 5321 4fbd a4ff 5b3d ac80 89bd 48ba b1bb
000000a0: 3543 3fbd 2e68 e4bc 7315 ffbc 2d73 bfbc
000000b0: 4e84 aebd fe1d a4bd 0dd0 22bd 7335 a93d
000000c0: ad56 ebbc df13 8abd b354 bf3d d1d2 ed3d
000000d0: d9ac 42bd 97ad a8bc d038 2cbd 46a2 96bd
000000e0: 3b4a 60bd 57aa 3e3d abc0 b03c 95f3 a33d
000000f0: 505f 553d 5ebb eb3b 1653 bc3d 87e9 62bc
00000100: b817 67bd c76d 463d f6ac a33c d658 3cbd
00000110: 98fe e8bd a146 dc3c 5184 933d dde8 48bd
00000120: f3f9 b5bd 8147 49bd 1651 acbd 4f83 793d
00000130: 0c52 c0bc be0a bcbc e565 f03d 490c 8abd
00000140: d668 843d 19ae 143d bb9a 76bd a29a af3c
00000150: 12b5 2abd 6a73 34bc c43b 84bc 08e2 d23c
00000160: 1172 5e3d 347d b83c faf6 d9bd 805d f1bd
00000170: 5dde 233d a4e1 8c3d 7ab8 573c 0df3 493d
00000180: dcfb a73d 4a8f 57bd 777a f6bc f0ea 0abd
00000190: 630c 1dbd 94cf 3b3d 59df 20bd 99d5 933b
000001a0: cb95 6ebd ef31 8e3d 3f30 70bd cac8 663b
000001b0: 5a0d cb3d 000b b8bd a187 b9bd 0d83 0b3b
000001c0: 7f10 293d 52ee b53c 2434 29bd 24cc 8bbd
000001d0: 3fc3 5abd 056c ab3d 9028 77bd da8f c3bc
000001e0: 84ad b23d a207 ebbd bdff 1abd 4f0e 0d3d
000001f0: 83e6 4ebd 2dd7 403d a483 81bc 0539 e3bd

fc2.weight f4 [3, 128]
-0.21119058 -0.1502878 -0.066591874 -0.047268827 -0.09198474 -0.0036588137 -0.022496633 0.033107184
-0.02131564 0.009026916 0.048965197 -0.10881122 0.05886807 0.06521349 0.013318029 -0.10864142
0.032242134 0.019606633 -0.0692647 0.10204132 0.1149292 -0.08286836 0.0018078239 0.09832129
0.08380709 0.06365697 -0.04734337 -0.10490331 0.10136506 0.034136444 0.07497073 -0.04934522
0.17495552 0.02065334 0.15391335 -0.025541544 -0.04892004 0.09478377 -0.03866797 -0.17783329
-0.014164945 -0.12379597 -0.19444886 -0.012574385 -0.119090274 -0.03816345 0.004620986 0.1217577
0.030379403 0.09311109 0.12687829 0.20696487 -0.07809952 -0.03454246 -0.01767196 -0.057054166
-0.059853226 0.120448545 -0.03727027 0.15968485 0.07519721 0.05188855 0.057427365 -0.068978354
-0.0443422 0.054478277 0.044383295 -0.07816217 -0.07131152 0.10374488 0.10711699 0.046098717
-0.10772241 -0.04573661 -0.13030782 0.15401924 -0.052307174 -0.1909049 0.049816355 0.00816207
0.13171694 0.04429805 -0.045393202 0.017376961 -0.050492782 -0.04184583 -0.018142303 -0.029712666
0.075803734 0.00040542166 0.025955196 -0.04980631 -0.045550637 0.10633114 -0.14989997 0.022508698
0.10101475 -0.16633135 -0.04369083 -0.12353845 -0.09652023 -0.017800644 -0.014586031 0.018499777
-0.15531084 -0.047023606 -0.01027829 -0.040057164 0.15019844 -0.023552774 -0.15966254 -0.017471822
-0.046763852 0.0121137 -0.045118444 -0.07593759 -0.08661513 0.04160713 -0.11758725 -0.20860983
0.045359008 -0.16713932 -0.12308926 0.18829371 -0.13765697 0.08863431 -0.057778362 -0.10705874
0.17938253 0.17872697 0.20014505 0.03131247 -0.039679255 -0.22991228 0.1826704 0.06656028
-0.00998967 -0.06879309 0.07266669 -0.062160306 0.0479028 0.08659941 -0.016982002 -0.099965066
0.062374998 -0.019003298 -0.06287677 -0.041413546 -0.21246691 0.027893255 0.018954208 0.088987626
-0.07167032 -0.14307912 -0.13693596 0.16696544 -0.21764304 0.06362659 0.072462514 -0.27835804
-0.19659665 0.06382018 -0.25022703 0.018389964 -0.08975023 -0.14959231 -0.08524613 0.10463463
-0.1188078 -0.010825064 0.14528024 0.05554256 0.0033650345 -0.04180369 -0.09926314 0.022812875
-0.089462265 -0.11914352 -0.17169963 -0.21280657 -0.064502425 -0.13009495 -0.0579904 0.1347067
-0.14607683 -0.18816522 0.004834527 -0.15674268 -0.15507372 0.042747032 0.05271615 0.07266269
-0.0042689024 0.032516774 -0.1762993 0.15192622 -0.11475205 -0.19012827 0.030330803 0.057700563
-0.07929565 0.024994772 0.10130866 -0.25527552 -0.08195248 0.086732745 0.053586766 -0.07870204
-0.033148393 0.08690913 0.026277205 -0.21521041 0.0058540315 0.04295656 -0.026460446 -0.31839275
0.015176496 -0.18650813 -0.08852187 -0.06393751 -0.046341106 -0.13918263 0.11345323 -0.17721367
-0.0023227427 0.11659299 0.03370163 0.04576917 0.08425498 -0.04156851 -0.047540896 -0.0429449
0.1274581 0.07655985 -0.14039105 0.05475625 -0.18687631 0.1116636 -0.020289782 0.015543023
-0.038428247 -0.073714584 -0.05795747 0.061032202 0.023348566 0.03988903 0.14120586 0.14840351
-0.052822452 0.14809103 0.19936039 -0.07482694 0.1515091 -0.1618185 -0.07509591 -0.11970099
00000000: 5842 58be 0ce5 19be 5261 88bd f59c 41bd
00000010: 7f62 bcbd b5c8 6fbb dc4a b8bc 669b 073d
00000020: 239e aebc a1e5 133c bb8f 483d 6bd8 debd
00000030: a51f 713d a68e 853d dd33 5a3c 657f debd
00000040: 5410 043d 179e a03c a7da 8dbd 0afb d03d
00000050: 0060 eb3d e3b6 a9bd 81f4 ec3a ac5c c93d
00000060: 0da3 ab3d 965e 823d 1feb 41bd 8cd7 d6bd
00000070: 7c98 cf3d a8d2 0b3d 418a 993d 371e 4abd
00000080: 8a27 333e 3131 a93c 769b 1d3e 803c d1bc
00000090: 6160 48bd fe1d c23d 4e62 1ebd ee19 36be
000000a0: 1614 68bc be88 fdbd 9a1d 47be cb04 4ebc
000000b0: 9ae5 f3bd 4751 1cbd a46b 973b 1a5c f93d
000000c0: 3ade f83c 07b1 be3d 62ec 013e 99ee 533e
000000d0: a4f2 9fbd 657c 0dbd c9c4 90bc a1b1 69bd
000000e0: a828 75bd baad f63d b6a8 18bd 6d84 233e
000000f0: ff00 9a3d 1789 543d f538 6b3d 8644 8dbd
00000100: 2ba0 35bd 9d24 5f3d 42cb 353d 7d13 a0bd
00000110: c60b 92bd 3278 d43d 2760 db3d 02d2 3c3d
00000120: 919d dcbd 5056 3bbd 6a6f 05be 38b7 1d3e
00000130: 0c40 56bd 937c 43be 3c0c 4c3d 34ba 053c
00000140: cee0 063e df71 353d 39ee 39bd 215a 8e3c
00000150: 85d1 4ebd 8866 2bbd 2b9f 94bc fa67 f3bc
00000160: fd3e 9b3d c68e d439 fe9f d43c b401 4cbd
00000170: 4e93 3abd 24c4 d93d 617f 19be 2964 b83c
00000180: d2e0 ce3d c452 2abe 28f5 32bd ba01 fdbd
00000190: 66ac c5bd a8d2 91bc 40fa 6ebc d88c 973c
000001a0: ce09 1fbe d39b 40bd 4666 28bc fb12 24bd
000001b0: 9fcd 193e bff1 c0bc 947e 23be 1121 8fbc
000001c0: 748b 3fbd 8a78 463c 1ece 38bd 2b85 9bbd
000001d0: 4663 b1bd 3d6c 2a3d 96d1 f0bd d19d 55be
000001e0: 5eca 393d 9226 2bbe 3916 fcbd 11d0 403e
000001f0: f3f5 0cbe e885 b53d 01a9 6cbd 9d41 dbbd
00000200: 0eb0 373e 3404 373e d3f2 4c3e 8141 003d
00000210: b786 22bd 206e 6bbe f30d 3b3e c250 883d
00000220: b6ab 23bc 64e3 8cbd 46d2 943d ce9b 7ebd
00000230: ba35 443d 085b b13d d71d 8bbc 7cba ccbd
00000240: ed7c 7f3d ceac 9bbc 89c5 80bd 40a1 29bd
00000250: ed90 59be 6580 e43c db45 9b3c 253f b63d
00000260: e4c7 92bd 5583 12be f138 0cbe fdf8 2a3e
00000270: d1dd 5ebe a84e 823d 3a67 943d f284 8ebe
00000280: a250 49be 28b4 823d c21d 80be 8da6 963c
00000290: f8ce b7bd ba2e 19be 8695 aebd ae4a d63d
000002a0: 8151 f3bd 9c5b 31bc 58c4 143e 9880 633d
000002b0: e987 5c3b 593a 2bbd 794a cbbd 11e2 ba3c
000002c0: fe37 b7bd 8501 f4bd 07d2 2fbe f7e9 59be
000002d0: d919 84bd 9c37 05be 5787 6dbd 8ef0 093e
000002e0: 2a95 15be 62ae 40be f46a 9e3b 2781 20be
000002f0: a5cb 1ebe 8317 2f3d e4ec 573d 2dd0 943d
00000300: 26e2 8bbb 4f30 053d ce87 34be 8c92 1b3e
00000310: 1f03 ebbd fcb0 42be 4e78 f83c 6d57 6c3d
00000320: c265 a2bd d6c1 cc3c ea7a cf3d 79b3 82be
00000330: b4d6 a7bd f0a0 b13d cc7d 5b3d 892e a1bd
00000340: 9cc6 07bd 6afd b13d 4b43 d73c 1e60 5cbe
00000350: 2dd3 bf3b 38f3 2f3d 94c3 d8bc 6004 a3be
00000360: d6a6 783c fdfb 3ebe f44a b5bd abf1 82bd
00000370: 2cd0 3dbd e485 0ebe 2b5a e83d 8077 35be
00000380: 2839 18bb 4ec8 ee3d b80a 0a3d 7478 3b3d
00000390: e08d ac3d be43 2abd 3eba 42bd fee6 2fbd
000003a0: 6084 023e 69cb 9c3d acc2 0fbe 1748 603d
000003b0: 815c 3fbe e3af e43d c236 a6bc 2aa8 7e3c
000003c0: f066 1dbd acf7 96bd d064 6dbd e7fc 793d
000003d0: 7e45 bf3c ae62 233d 4598 103e 17f7 173e
000003e0: 5b5c 58bd 2da5 173e 2125 4c3e de3e 99bd
000003f0: 3425 1b3e c0b3 25be e2cb 99bd cb25 f5bd

fc2.bias f4 [3]
0.08959779 -0.008940009 -0.21554308
00000000: 0c7f b73d 1e79 12bc 53b7 5cbe
