checkpoints/CNN_fold_3.pth (torch, 225380 bytes, 8 tensors)

conv1.weight f4 [16, 4, 3]
0.27064168 -0.17577833 0.29816863 0.0506578 0.22303359 0.13208587 0.21039242 0.26803553
-0.009184512 -0.03830591 -0.255011 0.14098233 -0.46716198 -0.3196707 -0.030751195 -0.114511415
-0.2056409 -0.2880204 -0.0060673836 -0.23879264 0.092215456 -0.18647553 -0.009100541 0.13390017
0.24513769 0.12403167 0.19103602 -0.3417122 -0.3485269 -0.36378837 0.21568885 -0.13594341
-0.12078712 -0.20421535 -0.1332175 -0.18234882 0.48894605 0.010187754 -0.16627409 0.24607375
0.019082692 0.2244662 -0.1484622 -0.04682609 -0.04012646 0.08359463 -0.30436996 -0.16895111
0.22210297 -0.32071167 -0.16918953 -0.24538095 -0.28148463 0.033140473 -0.0058847256 0.016690038
0.12735555 -0.18102601 -0.063278615 -0.014372684 -0.26218694 0.17861553 0.24787685 -0.2110632
-0.0802145 -0.4062798 -0.07753923 0.09631458 0.19867888 -0.08460602 0.10010655 0.027872106
-0.033635873 0.17698355 0.112349644 0.14247268 0.1714326 0.0021969806 -0.025880493 0.10753357
0.2037108 0.17934565 0.18446478 -0.10779977 0.27248192 -0.0075295423 0.28636944 0.014874013
0.03782766 0.0806778 -0.021667307 0.3641428 0.37834236 0.10289657 -0.08570006 0.012336952
-0.24707574 -0.3372315 -0.1342146 0.3071788 -0.010230002 -0.048549764 0.025748404 -0.18396987
-0.13922213 0.1759414 0.2694967 0.10249847 0.14201915 0.25180474 -0.17928712 -0.101304546
0.08581339 0.06402613 0.13231039 -0.12792115 -0.31462258 0.1934713 0.094534576 0.07095497
-0.12544642 -0.33325726 -0.19885741 0.4093253 0.022556633 0.14502789 -0.06597568 -0.09653209
0.077137604 0.12920257 -0.21098694 -0.15443659 0.36574203 0.44249046 0.18039963 -0.04856477
-0.25429234 -0.07443621 -0.024896344 0.012404493 -0.16625968 0.1884661 -0.073947266 -0.1621571
0.049003758 0.1655804 -0.022129549 0.19313408 -0.19389674 0.104717344 -0.24517687 -0.15247193
0.2183634 -0.24769066 0.003147607 -0.2400215 0.26023516 -0.26741192 -0.033611394 0.055111118
0.21505359 0.06419539 -0.051405184 0.23205744 0.15816917 -0.012514347 -0.22198375 0.26305118
-0.13157491 0.16947469 -0.07421836 0.17966168 0.07449884 -0.08888117 -0.32896307 0.02049227
-0.30475044 0.15814587 0.13903041 -0.12679058 0.32912207 0.0736021 0.28414637 -0.21035424
-0.12291557 -0.12627178 0.22669318 0.17071068 0.31526512 0.06984286 0.18426383 -0.04524718
00000000: 8c91 8a3e 3cff 33be 8fa9 983e 8e7e 4f3d
00000010: eb62 643e 8541 073e 1c71 573e f43b 893e
00000020: a37a 16bc a8e6 1cbd cd90 82be ac5d 103e
00000030: db2f efbe e1ab a3be eee9 fbbc f684 eabd
00000040: 8793 52be 6977 93be e7d0 c6bb 0f86 74be
00000050: 75db bc3d 71f3 3ebe 6f1a 15bc 201d 093e
00000060: 6005 7b3e 5104 fe3d f29e 433e e7f4 aebe
00000070: 1e72 b2be 7842 babe 8add 5c3e c034 0bbe
00000080: 3d5f f7bd d41d 51be 2b6a 08be a6b9 3abe
00000090: 2357 fa3e 8aea 263c c143 2abe c2fa 7b3e
000000a0: 4e53 9c3c 78da 653e 7a06 18be b7cc 3fbd
000000b0: a55b 24bd a933 ab3d 61d6 9bbe 8501 2dbe
000000c0: f66e 633e 5234 a4be 0540 2dbe 2545 7bbe
000000d0: c11e 90be 4ebe 073d a8d4 c0bb 8cb9 883c
000000e0: 7e69 023e e25e 39be 3898 81bd 687b 6bbc
000000f0: 5e3d 86be fde6 363e 6ed3 7d3e f420 58be
00000100: 8047 a4bd e803 d0be e3cc 9ebd 9440 c53d
00000110: 7a72 4b3e ec45 adbd aa04 cd3d 0b54 e43c
00000120: c5c5 09bd 2d3b 353e 9217 e63d 5ce4 113e
00000130: 078c 2f3e 38fb 0f3b 5403 d4bc 8f3a dc3d
00000140: 9099 503e 63a6 373e 56e4 3c3e 20c6 dcbd
00000150: c082 8b3e 61ba f6bb 049f 923e 22b2 733c
00000160: 2df1 1a3d 673a a53d a37f b1bc ed70 ba3e
00000170: 17b6 c13e 70bb d23d 8383 afbd ed20 4a3c
00000180: 6c01 7dbe 9ba9 acbe 8d6f 09be 8a46 9d3e
00000190: bd9b 27bc 1edc 46bd 51ee d23c 9962 3cbe
000001a0: 3f90 0ebe fb29 343e 79fb 893e b8ea d13d
000001b0: 786d 113e 8dec 803e 0b97 37be c278 cfbd
000001c0: eebe af3d 2220 833d 607c 073e c3fd 02be
000001d0: 3616 a1be 571d 463e 589b c13d d750 913d
000001e0: 0775 00be b2a0 aabe 47a1 4bbe 1693 d13e
000001f0: b0c8 b83c 3182 143e 421e 87bd 9eb2 c5bd
00000200: 52fa 9d3d ae4d 043e f60c 58be a024 1ebe
00000210: 8a42 bb3e 1c8e e23e aeba 383e daeb 46bd
00000220: 9b32 82be 0372 98bd 6bf3 cbbc 373c 4b3c
00000230: fa3f 2abe 42fd 403e aa71 97bd 830c 26be
00000240: 2ab8 483d e98d 293e 0749 b5bc f1c4 453e
00000250: de8c 46be 0c76 d63d a50f 7bbe 9a21 1cbe
00000260: a89a 5f3e 9fa2 7dbe 1548 4e3b 32c8 75be
00000270: 8b3d 853e 37ea 88be 1aac 09bd 32bc 613d
00000280: 0237 5c3e df78 833d 3e8e 52bd 77a0 6d3e
00000290: 19f7 213e fa08 4dbc b54f 63be a5ae 863e
000002a0: 93bb 06be c68a 2d3e ccff 97bd 3bf9 373e
000002b0: d992 983d 5507 b6bd d96d a8be 68df a73c
000002c0: 4008 9cbe fef0 213e fd5d 0e3e 64d5 01be
000002d0: b082 a83e b3bc 963d a27b 913e 1a67 57be
000002e0: 29bb fbbd 644d 01be 4222 683e c8ce 2e3e
000002f0: 6e6a a13e c609 8f3d a8af 3c3e 1b55 39bd

conv1.bias f4 [16]
0.056954745 -0.07412634 0.3158334 -0.16816863 -0.0766864 0.14054929 0.15870646 -0.11094788
-0.22739023 -0.13341348 0.12798321 -0.08376569 0.093093194 -0.1525122 0.04843413 0.15015945
00000000: 6149 693d 8dcf 97bd eab4 a13e 6634 2cbe
00000010: c20d 9dbd 27ec 0f3e f283 223e a438 e3bd
00000020: fcd8 68be 8b9d 08be 080e 033e 598d abbd
00000030: a5a7 be3d 282c 1cbe de62 463d 66c3 193e

conv2.weight f4 [32, 16, 3]
-0.056748718 0.0674239 0.08030033 -0.24982044 -0.19860116 -0.105808385 -0.16601233 0.04343131
0.044302065 -0.14291936 0.04438109 0.32078207 -0.15893422 -0.0040185708 -0.11111702 -0.034952942
-0.06233082 0.14917202 -0.015192607 0.012830313 0.18018086 -0.01660652 -0.13229957 0.0094378665
-0.028096642 0.03789774 -0.052782737 0.12986933 -0.08610159 0.04807047 0.09679546 0.17770495
-0.12657803 -0.3351458 0.072214566 0.13105887 0.0856313 0.09081111 0.0430384 0.066498965
-0.07091932 -0.055551074 0.03243227 -0.0484993 0.15444106 -0.101648115 -0.052402813 0.010084325
-0.08994868 -0.067291476 -0.09304173 -0.029234776 0.20793964 0.11323137 0.09019072 0.11487992
-0.02357649 -0.23499668 -0.005745425 -0.11595074 0.27151382 0.021253131 -0.03539955 0.28230292
0.20382279 0.057056867 -0.17036726 -0.035410106 -0.042579856 0.074539945 0.21324977 0.05042002
-0.037321337 0.10605667 -0.11224283 0.17554078 0.02281654 -0.07047247 0.19706243 0.12597868
-0.040095042 0.14385839 0.23865406 0.117342636 -0.08651315 -0.06781489 -0.10095113 -0.002478624
-0.016863279 0.086533286 0.1540665 -0.10382833 -0.0162764 0.07775456 0.12866683 0.1311986
-0.04184503 -0.14340009 -0.037995562 -0.004729524 0.1619961 0.13845438 0.0033668394 0.234405
-0.09798758 0.21825187 -0.026358385 0.065494634 0.054668773 0.11663414 0.1939214 0.10236885
0.2124875 -0.00045287173 0.019035203 -0.06451872 -0.10641145 -0.025221754 0.17585817 0.041157663
-0.099223025 0.05616202 0.018534983 -0.07369653 -0.08499039 0.08928233 -0.011485244 0.01017961
-0.010228647 0.22695778 0.19005539 0.27344832 -0.07137329 0.09825198 0.042883597 -0.3158438
0.0330837 0.109618984 -0.069854066 -0.015272016 -0.12577954 0.0813424 0.16459748 0.16341382
0.07181623 -0.15151283 -0.13254744 0.0028750417 0.2006952 0.12090109 0.05174301 0.13543025
0.17081113 0.22177932 -0.007753101 0.029226929 0.25167805 -0.04462915 0.21339294 -0.029791148
0.07430098 0.103125386 -0.00043529016 -0.012281248 -0.21580894 0.1413017 0.003352284 0.21223825
-0.025750937 0.10661539 -0.05539769 -0.09846989 -0.032441977 -0.062234346 -0.14114854 0.11308378
-0.10795609 -0.020939298 0.026311666 0.14504558 -0.19854335 -0.021807747 0.09069228 0.09461425
0.059390742 0.06145819 -0.06500801 -0.10048273 -0.12016975 0.010562914 0.10135402 0.12964848
0.010384597 0.022341233 0.03272812 -0.122882545 0.04331778 0.024978803 -0.1647372 0.122953594
-0.11949276 -0.29989785 0.056560308 -0.098822355 0.067441985 -0.08907671 0.06501205 0.030136267
0.10703375 -0.011703948 -0.20502831 -0.074602924 0.072666876 0.068016954 -0.049447395 -0.01948503
-0.12229155 -0.00018285429 -0.065991044 -0.06494737 -0.0063218703 -0.092827566 0.061404325 0.03058678
-0.06785605 0.10592459 0.13103488 0.1795919 -0.21783084 -0.023889262 -0.13150463 -0.27503717
0.020050667 -0.14954308 0.024388988 0.084109515 -0.055935957 0.024810309 0.035839662 0.11494184
0.015857562 -0.073709704 -0.09482608 0.22106169 -0.047375705 0.080210865 0.15086168 0.06219413
0.19864625 0.12822074 -0.03304489 -0.21681893 0.059043057 0.116770305 0.05928437 0.25868368
00000000: 5871 68bd 8b15 8a3d 8074 a43d eed0 7fbe
00000010: 1a5e 4bbe 11b2 d8bd 23ff 29be 08e5 313d
00000020: 1576 353d 7459 12be f2c8 353d 8c3d a43e
00000030: a7bf 22be 37ae 83bb 5291 e3bd d12a 0fbd
00000040: 9a4e 7fbd 8dc0 183e 6aea 78bc 3c36 523c
00000050: 5581 383e 660a 88bc 8a79 07be 48a1 1a3c
00000060: ee2a e6bc a93a 1b3d b632 58bd 77fc 043e
00000070: 0856 b0bd 8be5 443d b33c c63d 49f8 353e
00000080: ac9d 01be 3b98 abbe 3be5 933d 4c34 063e
00000090: 775f af3d 2dfb b93d 0949 303d 9c30 883d
000000a0: 263e 91bd 8689 63bd b3d7 043d 34a7 46bd
000000b0: cc25 1e3e e32c d0bd 55a4 56bd ba38 253c
000000c0: 0337 b8bd 1dd0 89bd aa8c bebd c57d efbc
000000d0: 21ee 543e d9e5 e73d eab5 b83d 2a46 eb3d
000000e0: 7c23 c1bc f8a2 70be 1e44 bcbb 9577 edbd
000000f0: dc03 8b3e 0c1b ae3c 1eff 10bd 028a 903e
00000100: ecb6 503e 76b4 693d c174 2ebe 300a 11bd
00000110: 3768 2ebd 66a8 983d 265e 5a3e 3985 4e3d
00000120: 42de 18bd 3d34 d93d 92df e5bd f6c0 333e
00000130: c1e9 ba3c df53 90bd bcca 493e 8e00 013e
00000140: b33a 24bd 9d4f 133e bb61 743e 5651 f03d
00000150: ce2d b1bd 88e2 8abd 77bf cebd 6970 22bb
00000160: dc24 8abc 5d38 b13d 9cc3 1d3e f3a3 d4bd
00000170: 1656 85bc c83d 9f3d 3dc1 033e ed58 063e
00000180: b265 2bbd 79d7 12be 3ca1 1bbd 1ffa 9abb
00000190: 4ee2 253e fcc6 0d3e 31a6 5c3b dd07 703e
000001a0: b6ad c8bd 6b7d 5f3e 8aed d7bc 0d22 863d
000001b0: 5dec 5f3d e1dd ee3d 5593 463e c2a6 d13d
000001c0: 5396 593e 6a6f edb9 b7ef 9b3c 6422 84bd
000001d0: 3fee d9bd da9d cebc 2a14 343e f094 283d
000001e0: 7135 cbbd 250a 663d add6 973c 35ee 96bd
000001f0: 710f aebd a7d9 b63d 9b2c 3cbc 61c8 263c
00000200: 0e96 27bc 9f67 683e e19d 423e 6b01 8c3e
00000210: 292c 92bd 5638 c93d b6a6 2f3d 47b6 a1be
00000220: c682 073d eb7f e03d a60f 8fbd 7a37 7abc
00000230: 5acc 00be d896 a63d 3e8c 283e f455 273e
00000240: 6314 933d 2e26 1bbe 84ba 07be 326b 3c3b
00000250: 0b83 4d3e fe9a f73d 7af0 533d 3aae 0a3e
00000260: 1de9 2e3e 1e1a 633e ba0d febb 506d ef3c
00000270: f2db 803e 0ecd 36bd ae83 5a3e 910c f4bc
00000280: 1d2b 983d 6733 d33d a837 e4b9 4a37 49bc
00000290: 05fd 5cbe 65b1 103e feb1 5b3b fc54 593e
000002a0: a1f3 d2bc 2b59 da3d b0e8 62bd 95aa c9bd
000002b0: e1e1 04bd 71e9 7ebd 3e89 10be 7898 e73d
000002c0: 1518 ddbd e488 abbc 908b d73c d486 143e
000002d0: f34e 4bbe 29a6 b2bc e0bc b93d 1ec5 c13d
000002e0: b543 733d 95bb 7b3d eb22 85bd e4c9 cdbd
000002f0: 8f1b f6bd 1310 2d3c b292 cf3d 92c2 043e
00000300: 2824 2a3c f604 b73c ec0d 063d d8a9 fbbd
00000310: fc6d 313d 59a0 cc3c deb0 28be 18cf fb3d
00000320: 9fb8 f4bd 368c 99be c8ab 673d 6063 cabd
00000330: 061f 8a3d da6d b6bd 0a25 853d 55e0 f63c
00000340: 8334 db3d eac1 3fbc f1f2 51be 6bc9 98bd
00000350: 5fd2 943d 794c 8b3d 5a89 4abd 129f 9fbc
00000360: fe73 fabd 93bc 3fb9 5026 87bd 2003 85bd
00000370: b127 cfbb 611c bebd 1a83 7b3d 2091 fa3c
00000380: 1df8 8abd feee d83d 022e 063e f0e6 373e
00000390: 0c0f 5fbe 6ab3 c3bc 26a9 06be acd1 8cbe
000003a0: 4c41 a43c d221 19be 6acb c73c 9c41 ac3d
000003b0: 1a1d 65bd fd3e cb3c 9ccc 123d a166 eb3d
000003c0: b8e7 813c 1df5 96bd 2d34 c2bd ff5d 623e
000003d0: 070d 42bd 9845 a43d 7c7b 1a3e 46bf 7e3d
000003e0: ec69 4b3e 4c4c 033e 145a 07bd c805 5ebe
000003f0: 22d7 713d 4525 ef3d 2bd4 723d 3072 843e

conv2.bias f4 [32]
0.13957176 -0.15171991 -0.15476246 -0.19365285 0.0017335928 -0.09921454 -0.071962446 -0.02869939
0.11977117 0.03888617 -0.008990017 0.10407034 0.07259957 0.011320517 -0.12506315 0.03338618
0.1690024 -0.045877386 -0.052560665 0.21896504 0.0371445 -0.05452994 0.010519291 0.14355075
-0.0826339 -0.10455892 -0.03521394 -0.021546425 0.110821836 -0.111788 0.023938222 -0.0724522
00000000: e6eb 0e3e 775c 1bbe 0d7a 1ebe ef4c 46be
00000010: b939 e33a fe30 cbbd 0c61 93bd fc1a ebbc
00000020: 964a f53d 1b47 1f3d dd4a 13bc d522 d53d
00000030: 15af 943d b179 393c 8e10 00be f2bf 083d
00000040: f70e 2d3e ede9 3bbd da49 57bd 5f38 603e
00000050: d524 183d c95a 5fbd 1b59 2c3c f8fe 123e
00000060: f63b a9bd fd22 d6bd 7e3c 10bd 2182 b0bc
00000070: 8ff6 e23d 1bf1 e4bd 171a c43c d261 94bd

fc1.weight f4 [128, 416]
0.0048664613 0.0070490763 0.027901053 0.07428582 0.06493025 0.04305909 -0.0048334855 0.052229
0.093363255 0.034226034 0.14894918 0.11159244 0.024314133 0.047110304 -0.015424315 0.05460133
0.030299576 -0.0552334 0.019155314 -0.030977167 0.0212777 0.012343859 0.0038903332 -0.022191966
-0.015914299 -0.061570056 -0.0114337215 0.059615213 0.044824224 0.031678837 -0.011878147 -0.025164012
-0.049104724 -0.023769733 0.031552713 0.006019027 -0.03624553 -0.010864948 -0.034469042 0.07847386
0.008233783 -0.016135503 -0.0030620708 -0.0025712922 -0.049495623 0.015226988 -0.0038878294 0.0449622
0.05098415 -0.041839648 -0.04340085 -0.010565091 0.0075930376 0.03638515 -0.035377942 -0.039960347
-0.024554843 -0.01889478 -0.030907687 -0.050959006 0.026470464 0.015063151 0.002844858 -0.030781953
0.022611309 0.04122362 -0.014853472 0.064644106 -0.0059205624 -0.05887636 0.01541374 -0.0013069126
-0.02646616 0.023473306 -0.0018943849 -0.040266845 -0.04053219 0.00952274 -0.027282925 0.06187274
-0.036986813 0.06265095 0.003386944 0.04205299 0.08091021 -0.019841451 0.06742989 0.0614693
0.07764446 0.03438577 0.0617141 -0.0229619 0.0066563734 -0.01433321 0.0034885705 -0.010701382
-0.03682761 0.016083049 -0.06526802 0.0016232587 -0.019751813 0.0042944984 -0.04606829 0.018364098
-0.0026448318 -0.012596906 0.04948783 0.13197117 0.108077556 0.12954363 0.03930972 0.07280872
0.09888506 -0.035657458 -0.01262477 0.03676492 0.095021896 0.0299821 0.016513286 0.04419182
0.042825524 0.04009899 0.033462975 0.098483555 0.092050806 0.092624165 0.06849715 0.022492731
0.030195419 0.013772329 -0.017943239 0.06127909 0.09740399 0.08737422 0.039039046 0.012249413
0.0067635253 -0.060368948 0.052862354 0.00031530063 0.011876307 0.03861522 -0.04457213 0.08646549
0.09964419 0.05946705 0.03964653 -0.023094274 -0.002927698 0.08959554 0.033709165 -0.04915311
0.0717846 -0.030612499 0.033606514 0.0014645258 0.081354946 0.08842825 0.052539665 0.07431649
0.0009470788 0.015656423 -0.04346179 0.037933346 0.119921595 0.084706 0.10315173 0.22194885
0.18934612 0.043424346 0.038366683 -0.03298856 0.04129353 0.03455084 0.051456172 0.062142696
0.024757722 0.1333143 0.103522696 0.12764914 0.04101666 0.15180615 0.005800592 0.019530952
0.069368884 0.065424345 0.022886595 0.025963662 -0.06940988 -0.0022073784 -0.046894956 -0.04465895
-0.0674969 -0.058955893 -0.053207237 0.036102254 0.029658621 0.04052302 -0.006561534 -0.021668898
0.044442687 0.013378753 -0.049664 -0.0125733 0.03807521 -0.040761884 -0.025939945 -0.035928275
0.038756806 0.06967381 0.04494654 -0.055505786 -0.02115573 -0.04746836 0.029362153 0.043465283
0.019773545 0.031980988 -0.025500067 0.0720114 -0.012523517 0.017059369 0.004223215 -0.018272223
0.031374063 -0.040731292 -0.040947944 -0.018306063 0.010397109 -0.027903419 -0.04712863 -0.029265022
-0.020284452 -0.028841257 0.16667087 0.06478084 0.012076792 -0.08880993 -0.06549553 -0.023229057
0.01776969 0.048222207 0.05652201 0.030385273 -0.017797805 0.023038773 0.005772732 0.06330267
0.064444326 0.06453314 0.05041559 0.01861083 0.03139735 0.02269165 0.0042005465 0.07018488
00000000: d676 9f3b f0fb e63b c090 e43c 2a23 983d
00000010: 27fa 843d ba5e 303d 3762 9ebb 13ee 553d
00000020: 3c35 bf3d 9930 0c3d 2286 183e 948a e43d
00000030: 6f2e c73c bcf6 403d 44b6 7cbc a5a5 5f3d
00000040: d136 f83c 6b3c 62bd 9beb 9c3c d4c3 fdbc
00000050: 924e ae3c e63d 4a3c f6f4 7e3b edcb b5bc
00000060: b45e 82bc e230 7cbd 8154 3bbc 152f 743d
00000070: 9b99 373d abc1 013d 8f9c 42bc c224 cebc
00000080: 0922 49bd beb8 c2bc 6b3d 013d 423b c53b
00000090: 3176 14bd e502 32bc 692f 0dbd e7b6 a03d
000000a0: fde6 063c 9a2e 84bc 06ad 48bb 2083 28bb
000000b0: ecbb 4abd 9e7a 793c f4ca 7ebb 492a 383d
000000c0: c2d4 503d 0d60 2bbd 17c5 31bd 3419 2dbc
000000d0: 04cf f83b 9808 153d 76e8 10bd 76ad 23bd
000000e0: 3d27 c9bc 3ac9 9abc 1e32 fdbc 64ba 50bd
000000f0: 96d8 d83c 6fcb 763c cc70 3a3b 6f2a fcbc
00000100: 5a3b b93c 19da 283d fa5b 73bc 2164 843d
00000110: 4701 c2bb 5728 71bd e989 7c3c b64c abba
00000120: 8fcf d8bc 174b c03c 024d f8ba d9ee 24bd
00000130: 1505 26bd 4405 1c3c 7180 dfbc 456e 7d3d
00000140: 7c7f 17bd 244f 803d 7ef7 5d3b c23f 2c3d
00000150: 41b4 a53d 8a8a a2bc af18 8a3d 3cc7 7b3d
00000160: 0f04 9f3d 18d8 0c3d edc7 7c3d 981a bcbc
00000170: b51d da3b d7d5 6abc 80a0 643b d954 2fbc
00000180: 8cd8 16bd 99c0 833c 3dab 85bd 86c3 d43a
00000190: 8ece a1bc ddb8 8c3b 1ab2 3cbd 4e70 963c
000001a0: ea54 2dbb 4163 4ebc c0b3 4a3d 7323 073e
000001b0: c457 dd3d 16a7 043e 3b03 213d bd1c 953d
000001c0: 4084 ca3d 8e0d 12bd 20d8 4ebc d096 163d
000001d0: d79a c23d 059d f53c df46 873c 7b02 353d
000001e0: d169 2f3d d73e 243d 7910 093d bfb1 c93d
000001f0: 2285 bc3d bdb1 bd3d 3c48 8c3d ad42 b83c
00000200: 625c f73c 56a5 613c b3fd 92bc c8ff 7a3d
00000210: be7b c73d 41f1 b23d 68e7 1f3d c3b1 483c
00000220: 90a0 dd3b 6e45 77bd 3286 583d ef4e a539
00000230: d894 423c fe2a 1e3d 4491 36bd d214 b13d
00000240: 4112 cc3d b993 733d 6664 223d 3430 bdbc
00000250: 9fde 3fbb de7d b73d 9f12 0a3d c554 49bd
00000260: ce03 933d 10c7 fabc fca6 093d 55f5 bf3a
00000270: 6c9d a63d df19 b53d d533 573d 3e33 983d
00000280: 6245 783a e641 803c fd04 32bd ff5f 1b3d
00000290: 7499 f53d 577a ad3d 3741 d33d 8f46 633e
000002a0: f3e3 413e badd 313d 6226 1d3d 031f 07bd
000002b0: 6823 293d 2e85 0d3d b5c3 523d 5789 7e3d
000002c0: b5d0 ca3c 8b83 083e b503 d43d 75b6 023e
000002d0: 1601 283d 1273 1b3e e412 be3b 60ff 9f3c
000002e0: 4611 8e3d 33fd 853d ab7c bb3c bfb1 d43c
000002f0: c426 8ebd aaa9 10bb ed14 40bd 4eec 36bd
00000300: d13b 8abd bc7b 71bd d5ef 59bd f5df 133d
00000310: a3f6 f23c 77fb 253d 2302 d7bb f982 b1bc
00000320: 8909 363d 8f32 5b3c 7a6c 4bbd 3e00 4ebc
00000330: c0f4 1b3d eff5 26bd 0280 d4bc 8729 13bd
00000340: 75bf 1e3d 24b1 8e3d dd19 383d 095a 63bd
00000350: c84e adbc 2f6e 42bd e688 f03c a708 323d
00000360: 21fc a13c 7ffe 023d 84e5 d0bc b67a 933d
00000370: 702f 4dbc 17c0 8b3c e562 8a3b a1af 95bc
00000380: 1782 003d dbd5 26bd 08b9 27bd 99f6 95bc
00000390: a358 2a3c b695 e4bc f309 41bd 33bd efbc
000003a0: 942b a6bc 8044 ecbc c5ab 2a3e d1ab 843d
000003b0: bddd 453c fbe1 b5bd 8522 86bd dd4a bebc
000003c0: be91 913c a684 453d a083 673d 89ea f83c
000003d0: b4cc 91bc cfbb bc3c 3029 bd3b d5a4 813d
000003e0: 63fb 833d f329 843d 9480 4e3d bd75 983c
000003f0: 829a 003d d7e3 b93c bda4 893b 17bd 8f3d

fc1.bias f4 [128]
0.053302538 -0.021542028 0.030167066 0.0045956303 0.061190512 -0.12851413 -0.12380079 -0.10379142
0.031304743 -0.10291955 -0.0014335467 0.02317333 -0.016317913 0.013028423 -0.04361563 -0.0039830618
0.03226457 -0.038118813 0.03520388 -0.039406355 -0.01685044 -0.0058934656 0.054102167 0.056003995
0.08278268 -0.0187235 -0.06083321 -0.11568624 0.09628538 -0.045609433 -0.082234785 0.12619269
0.013988244 -0.013654512 0.076656274 0.10173284 -0.01524396 0.027872264 -0.023016358 -0.01378498
-0.051207196 -0.083296984 0.053172186 -0.103960946 0.10924088 0.022147367 -0.0013537762 0.0893242
0.044670384 -0.053912092 -0.07183069 -0.003289694 0.010132945 0.07331772 0.038684357 -0.06334922
0.031486407 -0.070030294 -0.017992938 0.03744451 -0.025969626 -0.06662552 -0.0038550308 -0.07459532
-0.033363245 0.11751977 0.06870804 0.08781057 0.012587729 0.10620846 0.07800924 0.04857517
-0.022785354 -0.06669116 0.10337873 -0.047642216 0.014408249 -0.04533405 -0.037111074 0.052424744
0.01970411 -0.09653018 0.006494318 -0.025437918 -0.028033478 -0.012702758 0.08647967 -0.044736896
-0.018271234 -0.022684706 -0.025010271 -0.11437468 -0.09868105 -0.0019263821 -0.046200253 0.011372636
-0.12413534 -0.05124949 0.012903777 -0.008168997 -0.100381404 0.14275062 -0.039901767 0.04934223
-0.018920649 -0.04764935 -0.028808748 -0.05616484 0.009798428 -0.052415397 0.12826002 -0.02492351
0.03825162 0.052039254 0.03528781 -0.034281854 0.07603425 0.0015506825 0.076275475 0.12033142
-0.03367017 -0.06340746 -0.02200722 -0.033003714 0.044863272 -0.08066066 0.08015834 -0.10473567
00000000: c353 5a3d e878 b0bc ec20 f73c f196 963b
00000010: e7a2 7a3d 3599 03be 458b fdbd 9990 d4bd
00000020: 6739 003d 7cc7 d2bd d8e5 bbba ffd5 bd3c
00000030: 25ad 85bc 2b75 553c 4ea6 32bd 5884 82bb
00000040: db27 043d 7922 1cbd f231 103d 8f68 21bd
00000050: ef09 8abc f91d c1bb 3c9a 5d3d 7264 653d
00000060: f789 a93d 0762 99bc 3e2c 79bd e8ec ecbd
00000070: 4531 c53d f5d0 3abd b66a a8bd a838 013e
00000080: f32e 653c 2db7 5fbc f7fd 9c3d 4f59 d03d
00000090: cdc1 79bc 6054 e43c cd8c bcbc 66da 61bc
000000a0: a3be 51bd 9c97 aabd 14cb 593d 7ae9 d4bd
000000b0: afb9 df3d 656e b53c 3171 b1ba 9bef b63d
000000c0: 4bf8 363d edd2 5cbd f81b 93bd e897 57bb
000000d0: a704 263c 9a27 963d 7d73 1e3d 3cbd 81bd
000000e0: e4f7 003d 0b6c 8fbd ed65 93bc 6a5f 193d
000000f0: 41be d4bc f672 88bd afa4 7cbb 6ec5 98bd
00000100: e6a7 08bd 35ae f03d cdb6 8c3d 07d6 b33d
00000110: c33c 4e3c d283 d93d 4fc3 9f3d c2f6 463d
00000120: 5aa8 babc 6095 88bd 3ab8 d33d 7c24 43bd
00000130: 9410 6c3c 32b0 39bd c801 18bd 54bb 563d
00000140: 846a a13c 9db1 c5bd 4ace d43b 2e63 d0bc
00000150: 77a6 e5bc 3b1f 50bc 411c b13d 093e 37bd
00000160: 8ead 95bc 47d5 b9bc 57e2 ccbc 463d eabd
00000170: 4a19 cabd a87e fcba 7a3c 3dbd 4b54 3a3c
00000180: ab3a febd fcea 51bd 5d6a 533c 42d7 05bc
00000190: c494 cdbd 382d 123e 0970 23bd 141b 4a3d
000001a0: 7aff 9abc f72b 43bd 5300 ecbc 1a0d 66bd
000001b0: 9689 203c 87b1 56bd 9856 033e 642c ccbc
000001c0: bbad 1c3d 1d27 553d f389 103d 216b 0cbd
000001d0: d8b7 9b3d 4540 cb3a 5136 9c3d 5270 f63d
000001e0: bbe9 09bd c5db 81bd 7c48 b4bc e72e 07bd
000001f0: 8dc2 373d 6b31 a5bd 0e2a a43d a87f d6bd

fc2.weight f4 [3, 128]
0.04977537 0.10737157 -0.018332336 0.028706117 0.04614059 -0.10122433 -0.054284696 -0.2928606
0.105684794 -0.11689343 -0.013582066 0.07995759 -0.029054668 0.13392824 -0.1753002 -0.05362547
-0.07979139 -0.16162162 0.058652822 0.0073376927 0.039818175 0.045914494 0.21760915 0.056531508
0.045653474 -0.2086816 -0.073133975 -0.123880304 0.11158451 -0.26564077 -0.14900744 -0.009744965
-0.06408693 0.045967788 0.102790356 0.15841743 -0.12341701 -0.06402939 -0.017976275 0.053225454
-0.04654645 -0.028767763 0.041142873 0.12341101 0.19960032 0.062981166 -0.17127767 0.042614136
0.11014052 0.024116985 0.06079432 -0.06814185 -0.06781293 0.08317662 0.14894938 -0.10867534
0.14183629 0.082629085 0.04373487 0.002687626 -0.017426005 -0.25010592 0.000478488 -0.23066907
-0.0063978545 0.182654 0.08075687 0.1039967 -0.014307151 0.01424189 0.060221285 -0.04287274
-0.086680226 -0.15353546 -0.0071859895 -0.21304566 0.05128138 -0.13736397 0.03709616 -0.001872265
0.07353016 -0.029292842 -0.077792026 -0.063222535 -0.08702795 0.07483084 0.13751784 -0.056909464
-0.22813377 0.0029083218 0.06596086 -0.21801409 -0.18723676 -0.124771304 0.069828026 0.12592609
-0.2269505 -0.020382173 0.028604276 0.08661336 -0.003999553 0.15173285 -0.040779974 0.0883127
-0.08158793 -0.060334597 -0.12157103 -0.17479463 -0.030131135 0.00031365734 0.13687184 -0.04908063
-0.01950088 0.022761524 -0.025179213 0.061712813 0.049097456 0.061010666 0.12107125 0.1310251
-0.13079835 0.06912519 -0.026717661 0.032610558 -0.07063807 -0.1303639 -0.020485783 -0.08975564
0.06974825 -0.29288337 -0.010185219 -0.13550076 -0.26624784 0.05975034 0.19477147 0.15722042
-0.17074226 -0.0769151 -0.13134241 0.089484766 -0.06538921 -0.12459868 0.08155835 0.04920732
-0.019655915 0.14104399 -0.21380192 0.006720585 0.07507783 0.05956966 -0.16692595 -0.21861733
-0.24294558 0.16940995 -0.10034212 -0.084710084 -0.13717279 0.08648648 0.003995007 -0.20474844
0.0075761266 0.06664469 -0.16654408 -0.15347905 -0.07238363 -0.01509135 -0.07990931 0.04363827
-0.123707145 0.03314935 0.11867507 -0.09251698 -0.25457957 0.0019221503 0.12427187 -0.20944977
0.02496723 -0.031530496 -0.035438538 -0.07817774 0.018483685 -0.19838549 -0.13449098 0.21432398
-0.11666499 0.0054616043 0.03106801 0.039989576 -0.05683125 0.12590533 0.032428402 0.13050182
0.03073911 -0.16473456 -0.0984064 0.09902226 -0.04640077 0.0046333256 -0.17416675 -0.010484032
-0.03843752 0.202343 0.068816684 0.13764071 -0.06255204 -0.07265582 -0.048061024 -0.19729386
0.089475386 -0.12523887 -0.047396094 -0.032035153 0.029234584 0.027665941 -0.14793299 0.01783971
0.0842384 0.07235759 0.057750132 0.09772986 0.12534967 0.16027558 -0.048376743 -0.08427671
0.17729843 0.0585132 0.056942027 -0.028436093 -0.04361823 -0.21788579 0.057151932 -0.19695577
0.04904432 -0.040320896 -0.034252554 0.12394382 0.012042154 0.051500726 0.020695176 0.12335532
0.12119906 -0.12156168 0.026286008 0.056779392 -0.064841256 0.069803484 -0.1394068 -0.13734256
-0.062108185 0.03957831 -0.01148218 0.07336227 -0.15674154 0.13842486 -0.036841724 -0.08907319
00000000: 42e1 4b3d a0e5 db3d b22d 96bc 1729 eb3c
00000010: eafd 3c3d b44e cfbd a159 5ebd d3f1 95be
00000020: 4571 d83d d365 efbd 5087 5ebc cec0 a33d
00000030: 0e04 eebc 7c24 093e e581 33be 61a6 5bbd
00000040: ab69 a3bd 2380 25be f13d 703d 0771 f03b
00000050: 6218 233d d610 3c3d efd4 5e3e 958d 673d
00000060: 23ff 3a3d a1b0 55be 44c7 95bd f5b4 fdbd
00000070: 6b86 e43d 1102 88be 6895 18be 58a9 1fbc
00000080: 0240 83bd b848 3c3d c083 d23d 2e38 223e
00000090: 0fc2 fcbd d721 83bd fb42 93bc ef02 5a3d
000000a0: 7ea7 3ebd 5faa ebbc 6e85 283d e9be fc3d
000000b0: 0764 4c3e 45fc 803d 6a63 2fbe 298c 2e3d
000000c0: 5a91 e13d fc90 c53c 7703 793d f48d 8bbd
000000d0: 81e1 8abd 8158 aa3d 3086 183e 2d91 debd
000000e0: 883d 113e 7039 a93d 5623 333d e222 303b
000000f0: fbc0 8ebc e20d 80be 92dd fa39 8334 6cbe
00000100: 18a5 d1bb a609 3b3e dc63 a53d 39fc d43d
00000110: 8a68 6abc d156 693c 98aa 763d 549b 2fbd
00000120: 6785 b1bd 6638 1dbe 7378 ebbb a428 5abe
00000130: 6d0c 523d 24a9 0cbe 25f2 173d ca66 f5ba
00000140: fb96 963d 8bf7 efbc 6d51 9fbd d17a 81bd
00000150: b63b b2bd e940 993d 7ad1 0c3e e619 69bd
00000160: e69b 69be 8b99 3e3b 7d16 873d 163f 5fbe
00000170: feba 3fbe 1988 ffbd ff01 8f3d c5f2 003e
00000180: b665 68be 84f8 a6bc 8453 ea3c 5862 b13d
00000190: af0e 83bb db5f 1b3e e708 27bd 4add b43d
000001a0: 9317 a7bd 6921 77bd 3bfa f8bd 5dfd 32be
000001b0: 92d5 f6bc 6072 a439 2228 0c3e c508 49bd
000001c0: 4fc0 9fbc 6076 ba3c a344 cebc 93c6 7c3d
000001d0: 6a1a 493d 52e6 793d 34f4 f73d 722b 063e
000001e0: 01f0 05be 8291 8d3d ffde dabc a692 053d
000001f0: b1aa 90bd 1d7e 05be cdd1 a7bc ced1 b7bd
00000200: 2cd8 8e3d cff4 95be e8df 26bc b6c0 0abe
00000210: a351 88be c6bc 743d 2c72 473e 64fe 203e
00000220: 0fd7 2ebe aa85 9dbd a07e 06be ca43 b73d
00000230: c7ea 85bd 982d ffbd 1008 a73d 9d8d 493d
00000240: 7105 a1bc d66d 103e e4ee 5abe 5a38 dc3b
00000250: 68c2 993d 51ff 733d a3ee 2abe 39dd 5fbe
00000260: bac6 78be cd79 2d3e 2b80 cdbd 7b7c adbd
00000270: 0677 0cbe d31f b13d 8ce8 823b 93a9 51be
00000280: 2841 f83b 037d 883d 888a 2abe 9d29 1dbe
00000290: de3d 94bd b641 77bc 7ea7 a3bd 0bbe 323d
000002a0: 2c5a fdbd 9dc7 073d ea0b f33d 8b79 bdbd
000002b0: 4158 82be a9f0 fb3a 4082 fe3d 007a 56be
000002c0: 1488 cc3c 1f26 01bd 0028 11bd a71b a0bd
000002d0: 196b 973c 9125 4bbe 01b8 09be bf77 5b3e
000002e0: 0eee eebd 42f7 b23b 5782 fe3c 1ccc 233d
000002f0: e3c7 68bd 54ed 003e a5d3 043d 45a2 053e
00000300: 96d0 fb3c 2db0 28be 4b89 c9bd 2fcc ca3d
00000310: bc0e 3ebd 27d3 973b c558 32be 38c5 2bbc
00000320: a970 1dbd 0133 4f3e c3ef 8c3d b0f1 0c3e
00000330: 491b 80bd 93cc 94bd a3db 44bd 6707 4abe
00000340: df3e b73d 9e3e 00be 6822 42bd 4b37 03bd
00000350: 5e7d ef3c afa3 e23c bf7b 17be 9524 923c
00000360: 2f85 ac3d 3730 943d 678b 6c3d 9826 c83d
00000370: aa5b 003e 481f 243e b126 46bd 4599 acbd
00000380: b88d 353e 8aab 6f3d 0b3c 693d cff2 e8bc
00000390: 07a9 32bd 741d 5fbe 2518 6a3d c6ae 49be
000003a0: b2e2 483d 8627 25bd 684c 0cbd 42d6 fd3d
000003b0: 744c 453c 6df2 523d ee88 a93c b7a1 fc3d
000003c0: 3637 f83d 55f5 f8bd c155 d73c 8291 683d
000003d0: 7ecb 84bd 21f5 8e3d a8c0 0ebe 87a3 0cbe
000003e0: 2765 7ebd de1c 223d c11f 3cbc f53e 963d
000003f0: db80 20be 3fbf 0d3e 59e7 16bd 016c b6bd

fc2.bias f4 [3]
0.04501967 0.08493553 -0.21889865
00000000: 8c66 383d aef2 ad3d f826 60be
