checkpoints/CNN_fold_4.pth (torch, 225380 bytes, 8 tensors)

conv1.weight f4 [16, 4, 3]
-0.36315438 0.24792661 0.004607479 0.27383533 0.31778958 -0.154963 -0.19387618 0.11425889
-0.04980975 0.057401825 0.0036726645 -0.184286 -0.31510904 -0.011759629 -0.24671811 0.22981349
0.28575674 -0.20675755 -0.26103246 -0.16250253 0.0030004126 -0.18941619 -0.10075204 0.15755294
0.085154474 -0.2524631 -0.21378615 0.026631663 -0.075625226 -0.27764106 -0.09883679 0.33172452
-0.062688015 -0.029503351 -0.08400707 0.17255875 -0.08753419 -0.28947598 -0.010555295 -0.2007001
-0.029189114 0.28371465 -0.14333725 -0.14652592 -0.1787166 0.16746514 -0.27304605 -0.11201437
0.14137766 0.16280884 0.40425485 -0.16344523 0.1555612 0.16988595 0.060506582 0.22623341
0.35122308 0.1069941 -0.22046512 0.24683061 -0.13427366 0.08706588 -0.059907153 -0.18750983
0.2646502 0.215076 -0.22959581 -0.051239464 -0.22037406 -0.25329506 -0.23905115 -0.24112117
-0.06072467 0.046592783 -0.23369291 -0.2370317 -0.23885278 -0.40149555 0.010797306 0.21093845
0.18655413 0.0772374 0.018235484 -0.24881007 -0.3394895 -0.29193613 -0.19695877 0.23362531
0.18439654 0.26547736 -0.032847866 0.17951089 -0.21852481 -0.21166697 0.20061195 0.15884522
0.05155628 0.17650203 0.33950815 -0.29881877 -0.359949 -0.03838737 -0.15104033 0.24138181
0.22471754 -0.16803251 0.32509926 -0.073277466 -0.24446125 -0.32314733 -0.37281042 -0.19481693
-0.34953412 0.10130787 -0.06771613 0.080330215 0.2944659 -0.15830526 -0.25816098 -0.2517657
0.12708075 -0.038466338 0.47594967 0.22562642 0.20918529 0.29184937 -0.20038009 0.2742874
-0.040277403 0.04470112 -0.0062547633 -0.06829453 -0.2248157 -0.22890802 0.01946692 0.2739005
0.13090476 0.13333261 0.11647897 -0.19724223 -0.30648336 0.104892634 -0.06354008 0.02394229
0.4582182 0.17117459 0.4322649 -0.3492374 -0.30059776 0.005902711 -0.17276767 0.08859707
-0.26654133 -0.096018784 0.12327527 0.066408075 0.027085247 0.30124637 0.09152592 -0.13256358
0.17898011 0.18492445 0.1463907 -0.19524613 -0.04973318 -0.1925947 -0.21481723 0.1667746
0.24436465 -0.15026097 -0.35779458 -0.13650095 0.018092794 -0.3219937 0.2296765 -0.04406732
-0.06837959 0.123918 -0.10380772 0.052449506 -0.2056728 -0.32214776 -0.11788287 0.25539994
-0.09109079 0.3992651 0.0493811 0.17652471 0.3084527 0.020879764 -0.1843604 0.23636578
00000000: 5fef b9be 79e0 7d3e 56fa 963b 2534 8c3e
00000010: 51b5 a23e 9fae 1ebe 7a87 46be 9100 ea3d
00000020: 4f05 4cbd 2d1e 6b3d 16b1 703b 78b5 3cbe
00000030: f955 a1be 75ab 40bc aca3 7cbe 3a54 6b3e
00000040: b54e 923e 40b8 53be 0ca6 85be 1067 26be
00000050: 92a2 443b 51f6 41be 1657 cebd 8f55 213e
00000060: 7865 ae3d d842 81be c2ea 5abe a52a da3c
00000070: 66e1 9abd f826 8ebe f16a cabd ccd7 a93e
00000080: 9362 80bd 03b1 f1bc e60b acbd 3eb3 303e
00000090: 2045 b3bd 3236 94be 1ef0 2cbc 5484 4dbe
000000a0: 021e efbc 0c43 913e 00c7 12be e40a 16be
000000b0: 7c01 37be fb7b 2b3e b1cc 8bbe ca67 e5bd
000000c0: 4ec5 103e 5cb7 263e 7efa ce3e 305e 27be
000000d0: 6f4b 1f3e 95f6 2d3e c0d5 773d bba9 673e
000000e0: 83d3 b33e b91f db3d 9cc1 61be 2ac1 7c3e
000000f0: 097f 09be 994f b23d 3461 75bd 9402 40be
00000100: 3b80 873e e23c 5c3e 2a1b 6bbe 79e0 51bd
00000110: bda9 61be e4af 81be d3c9 74be 78e8 76be
00000120: 6eba 78bd 13d8 3e3d 324d 6fbe 70b8 72be
00000130: d395 74be d390 cdbe 2fe7 303c 4000 583e
00000140: 0c08 3f3e a42e 9e3d 9562 953c 11c8 7ebe
00000150: 91d1 adbe a778 95be 8faf 49be 793b 6f3e
00000160: 72d2 3c3e a6ec 873e 7c8b 06bd b4d1 373e
00000170: f8c4 5fbe 3abf 58be 386d 4d3e 52a8 223e
00000180: ae2c 533d f3bc 343e 03d4 ad3e c6fe 98be
00000190: 3c4b b8be 133c 1dbd 51aa 1abe cb2c 773e
000001a0: 5b1c 663e b710 2cbe 6973 a63e 7f12 96bd
000001b0: 0d54 7abe 9173 a5be 02e1 bebe 177e 47be
000001c0: 23f6 b2be 807a cf3d c1ae 8abd 2b84 a43d
000001d0: 3cc4 963e c61a 22be ad2d 84be 6fe7 80be
000001e0: 7521 023e e18e 1dbd adaf f33e 9d0a 673e
000001f0: ab34 563e 486d 953e 7030 4dbe 666f 8c3e
00000200: ebf9 24bd 8618 373d c2f4 ccbb 01de 8bbd
00000210: 1636 66be dd66 6abe 1779 9f3c b03c 8c3e
00000220: e60b 063e 5888 083e 878c ee3d def9 49be
00000230: 63eb 9cbe f3d1 d63d 4d21 82bd 9f22 c43c
00000240: 939b ea3e 6448 2f3e d351 dd3e 3fcf b2be
00000250: f3e7 99be 876b c13b 02ea 30be 6172 b53d
00000260: 1b78 88be 7fa5 c4bd bf77 fc3d f500 883d
00000270: e1e1 dd3c f73c 9a3e f171 bb3d bfbe 07be
00000280: 9046 373e d65c 3d3e 72e7 153e 9aee 47be
00000290: 05b5 4bbd 8c37 45be 0cf9 5bbe f6c6 2a3e
000002a0: ba3a 7a3e 03de 19be da30 b7be e8c6 0bbe
000002b0: 5737 943c 5cdc a4be 5130 6b3e ef7f 34bd
000002c0: 990a 8cbd b8c8 fd3d 2499 d4bd 4bd5 563d
000002d0: e49b 52be 8df0 a4be 936c f1bd c8c3 823e
000002e0: cf8d babd 7a6c cc3e d643 4a3d e5c2 343e
000002f0: 83ed 9d3e 0a0c ab3c f9c8 3cbe df09 723e

conv1.bias f4 [16]
-0.018800236 0.114671096 0.2535627 -0.10486509 -0.021302165 -0.20140591 -0.1037207 -0.30945066
-0.3102115 -0.20458123 0.33346274 0.10912631 -0.03345126 -0.12316433 -0.030910132 0.035527367
00000000: f402 9abc aed8 ea3d f8d2 813e 82c3 d6bd
00000010: e181 aebc 5a3d 4ebe 856b d4bd 5170 9ebe
00000020: 0bd4 9ebe be7d 51be a1bb aa3e 9d7d df3d
00000030: 3004 09bd 953d fcbd 3f37 fdbc 2585 113d

conv2.weight f4 [32, 16, 3]
-0.21979436 -0.10101261 0.075787716 -0.042404573 0.13679554 -0.060062993 -0.16561851 0.029837983
0.16663623 0.0024187737 0.075663514 0.21546237 0.25737277 0.23967867 0.18866359 -0.13470967
-0.0083892485 0.07406139 0.029007813 0.08944209 -0.063498504 -0.03033161 -0.053187735 -0.10845751
0.12179865 -0.04962541 -0.26894316 -0.29656133 -0.08800616 -0.17902817 0.047001984 0.023824047
-0.077907816 0.0007244245 0.048618883 -0.17480731 -0.08853059 -0.014717259 -0.29020098 0.11090413
-0.110961355 -0.29644713 0.25900346 -0.108017296 -0.16716906 -0.15598875 -0.13082583 -0.108984016
0.24331084 -0.025238482 0.05500897 -0.20177758 -0.06361662 0.06109098 0.016015004 0.19864884
0.11974162 0.060730442 0.05854007 0.10325826 -0.0071670585 0.07663137 -0.1867395 -0.019665875
-0.20612171 -0.027446141 -0.0594099 -0.004593557 0.04280931 -0.12668757 -0.38119343 -0.021961281
-0.002004427 -0.048713118 0.19891816 0.12129763 0.11679441 0.052626666 -0.03154864 -0.082195185
-0.03456944 -0.08471468 -0.19448723 0.12549439 -0.13789588 -0.18412575 -0.18108214 -0.049864672
-0.17270215 -0.2736897 0.10193868 0.19279863 0.1816542 -0.046956588 0.1402764 0.26279157
-0.25036305 -0.046402525 -0.081383996 -0.040375654 -0.01433757 -0.13123551 -0.13762987 0.10778278
0.107258976 0.055764843 -0.0083452165 0.11777441 -0.15988879 0.016317308 0.08453517 -0.01769078
-0.004755135 -0.0063795 0.1364695 0.1921924 -0.021287302 0.065985315 -0.093463555 -0.17779249
0.13882546 0.2261696 0.15168504 0.106788196 0.109033346 -0.01781538 -0.070254706 -0.31069365
-0.09491443 -0.08530175 -0.12913874 -0.19701572 0.17070982 0.08693685 -0.02276523 -0.12164883
-0.05097148 0.007516659 0.11656114 -0.029839434 0.20273235 -0.12722872 -0.029855546 -0.061584745
0.07640477 -0.16338234 -0.05932167 0.021010855 0.005833668 0.010307509 -0.22229236 -0.1477673
0.15526584 0.21531619 -0.04008745 0.028510327 0.17363368 0.07098269 0.13847826 -0.24791308
-0.17973472 0.051922955 0.24362825 0.14782792 0.046772823 -0.104788914 -0.025325548 0.10158511
0.18984754 0.060429722 0.20616749 0.032697503 0.091540255 0.07408811 0.038946304 0.030255895
-0.019371776 0.046262454 -0.1028978 -0.03240094 0.30248836 0.19496311 0.22835496 0.09653372
0.013979541 -0.079778 0.13230792 0.1696019 0.20196442 -0.24103121 -0.24773078 -0.17800343
0.052352503 0.08780467 -0.011514234 -0.050961718 -0.057981122 -0.19277409 0.16642681 0.124469474
-0.10082436 -0.27400222 0.075933315 0.36103067 -0.06284218 0.19436911 0.29322815 0.054402698
-0.014271636 0.0052603506 0.07666995 -0.051598 -0.113800526 -0.10096084 -0.09582549 -0.24925718
-0.10238232 -0.085118905 0.15052724 -0.042358264 -0.2553702 -0.22487377 0.17635395 0.10497737
0.1747993 -0.012617598 0.11719163 0.07599751 -0.12548971 -0.24600789 -0.006967509 -0.023035262
0.14197244 0.19268745 -0.1168377 -0.01298937 -0.07505317 0.022918753 0.033555932 -0.15346465
0.050361328 -0.17641829 0.0017025388 0.027032364 -0.06831974 -0.09806226 -0.081162296 -0.14701991
-0.18078123 0.047651097 0.083447434 0.053430535 -0.05023256 -0.13364473 -0.0054979795 0.030688705
00000000: c611 61be b3df cebd 9736 9b3d 6bb0 2dbd
00000010: 2114 0c3e 9d04 76bd e697 29be c96e f43c
00000020: b0a2 2a3e 4a84 1e3b 79f5 9a3d 2ba2 5c3e
00000030: 5dc6 833e 536e 753e 0731 413e 55f1 09be
00000040: 0f73 09bc 7fad 973d cba1 ed3c 6a2d b73d
00000050: 810b 82bd ff79 f8bc 62db 59bd f91e debd
00000060: 9271 f93d 0444 4bbd ebb2 89be e3d6 97be
00000070: 933c b4bd 2953 37be 2785 403d a62a c33c
00000080: 228e 9fbd 4ee7 3d3a 9824 473d b000 33be
00000090: 874f b5bd a920 71bc 3995 94be b421 e33d
000000a0: b53f e3bd ebc7 97be 1a9c 843e 2c38 ddbd
000000b0: 5e2e 2bbe 84bb 1fbe 35f7 05be 0333 dfbd
000000c0: 7a26 793e efc0 cebc 1651 613d c89e 4ebe
000000d0: 6e49 82bd 893a 7a3d e631 833c 9a6a 4b3e
000000e0: 183b f53d 7cc0 783d b6c7 6f3d 1179 d33d
000000f0: a5d9 eabb e8f0 9c3d a438 3fbe 541a a1bc
00000100: 9211 53be bbd6 e0bc cc57 73bd 8d85 96bb
00000110: d158 2f3d 63ba 01be c92b c3be 25e8 b3bc
00000120: b45c 03bb 6887 47bd 34b1 4b3e e46a f83d
00000130: e831 ef3d 0f8f 573d 2639 01bd f355 a8bd
00000140: af98 0dbd e47e adbd a927 47be 9a81 003e
00000150: 9434 0dbe 768b 3cbe 996d 39be e63e 4cbd
00000160: d5d8 30be 0e21 8cbe 3ac5 d03d 016d 453e
00000170: 8f03 3a3e 8d55 40bd 9ea4 0f3e 9e8c 863e
00000180: 962f 80be 9310 3ebd a7ac a6bd f160 25bd
00000190: 21e8 6abc 9a62 06be d8ee 0cbe 38bd dc3d
000001a0: 98aa db3d ad69 643d 60ba 08bc b633 f13d
000001b0: e3b9 23be e0ab 853c c620 ad3d 41ec 90bc
000001c0: f7d0 9bbb 200b d1bb a9be 0b3e 16ce 443e
000001d0: b562 aebc 4f23 873d d269 bfbd 3c0f 36be
000001e0: 4328 0e3e 0199 673e 5353 1b3e c5b3 da3d
000001f0: e04c df3d 8ff1 91bc b3e1 8fbd 3d13 9fbe
00000200: 7f62 c2bd afb2 aebd f23c 04be 7dbe 49be
00000210: 8ece 2e3e f20b b23d 267e babc 0623 f9bd
00000220: 78c7 50bd 4e4e f63b 9bb7 ee3d d471 f4bc
00000230: 1299 4f3e 3f48 02be 9e93 f4bc 4940 7cbd
00000240: 1b7a 9c3d b34d 27be 48fb 72bd f51e ac3c
00000250: 5b28 bf3b d4e0 283c 9ca0 63be 5050 17be
00000260: 02fe 1e3e d97b 5c3e bd32 24bd 7d8e e93c
00000270: 07cd 313e 5f5f 913d 3fcd 0d3e eddc 7dbe
00000280: 610c 38be 2aad 543d af79 793e 3460 173e
00000290: dc94 3f3d 929b d6bd 8677 cfbc db0b d03d
000002a0: 6567 423e 2885 773d 921d 533e d1ed 053d
000002b0: 7579 bb3d 82bb 973d 2986 1f3d 36db f73c
000002c0: 8fb1 9ebc b37d 3d3d 15bc d2bd d9b6 04bd
000002d0: c1df 9a3e 69a4 473e e2d5 693e 79b3 c53d
000002e0: 720a 653c a662 a3bd ba7b 073e 1fac 2d3e
000002f0: c3cf 4e3e e3d0 76be 23ad 7dbe 8846 36be
00000300: 946f 563d efd2 b33d 33a6 3cbc 3cbd 50bd
00000310: 9d7d 6dbd 9266 45be ca6b 2a3e dae9 fe3d
00000320: 017d cebd 054a 8cbe ed82 9b3d 03d9 b83e
00000330: 67b3 80bd b208 473e 0022 963e 5dd5 5e3d
00000340: 94d3 69bc 055f ac3b 2205 9d3d 6d58 53bd
00000350: 4010 e9bd 8fc4 cebd 2840 c4bd 463d 7fbe
00000360: d2ad d1bd d252 aebd d023 1a3e dc7f 2dbd
00000370: e2bf 82be 4f45 66be 2196 343e 60fe d63d
00000380: 96fe 323e 0bba 4ebc 2a02 f03d 95a4 9b3d
00000390: 6080 00be 7ee9 7bbe b44f e4bb 72b4 bcbc
000003a0: 3961 113e dc4f 453e 9b48 efbd 5ed1 54bc
000003b0: 7ab5 99bd 1cc0 bb3c f271 093d d625 1dbe
000003c0: ae47 4e3d ffa6 34be b927 df3a fa72 dd3c
000003d0: 38eb 8bbd ded4 c8bd 6b38 a6bd 638c 16be
000003e0: b71e 39be cc2d 433d 7de6 aa3d fad9 5a3d
000003f0: a8c0 4dbd 2ada 08be 6528 b4bb e166 fb3c

conv2.bias f4 [32]
0.22464456 0.10706412 -0.11821708 -0.14236869 0.1466867 0.06807097 -0.1226775 -0.16478834
0.004704582 -0.045862548 0.062034275 -0.026945457 -0.17218423 0.038730297 0.13469122 -0.061875906
0.19501175 0.1323177 -0.0057837865 0.070722625 0.11015053 0.059826624 -0.10392192 -0.042745925
0.017940974 0.032160666 -0.041657012 -0.15770596 -0.11267489 -0.09390387 0.07857326 0.013393725
00000000: 3909 663e 6f44 db3d cc1b f2bd 19c9 11be
00000010: 0a35 163e cb68 8b3d 573e fbbd 46be 28be
00000020: e528 9a3b 5eda 3bbd a717 7e3d b8bc dcbc
00000030: 1051 30be a9a3 1e3d 7fec 093e 9771 7dbd
00000040: 29b1 473e 4b7e 073e eb85 bdbb 06d7 903d
00000050: 9a96 e13d c30c 753d 04d5 d4bd 5a16 2fbd
00000060: f3f8 923c e7ba 033d 8ba0 2abd ac7d 21be
00000070: 18c2 e6bd ac50 c0bd 04eb a03d 5b71 5b3c

fc1.weight f4 [128, 416]
-0.24239458 -0.20299558 0.023292698 0.07663537 0.025049465 -0.038445413 0.0044056093 -0.04712948
-0.17384641 -0.02455523 0.10422464 -0.3999819 -0.62105566 0.06711516 -0.110314496 -0.090459414
-0.00059231784 0.07186738 -0.002427299 -0.12706311 -0.036838334 -0.06422626 -0.38240156 0.11070292
0.14499323 0.03810457 -0.03291766 -0.11636131 -0.051835284 0.014028614 0.020031305 0.033450622
0.039539415 -0.0052809073 -0.040554944 -0.16731386 -0.07133815 0.0852649 0.059978437 -0.27470073
0.06620952 0.2022811 0.2225429 0.048462223 -0.07703663 -0.06163456 0.063057594 -0.18521649
0.08529968 0.22686924 -0.18826728 -0.05962277 -0.18713897 0.04458932 0.025925815 -0.023024935
-0.013783518 -0.012760579 -0.03394302 -0.068779595 0.0021092494 0.050465625 -0.14324743 -0.40082943
-0.28629744 -0.070522115 -0.04706831 -0.011828125 -0.019103955 -0.066803634 -0.01612523 -0.023163501
0.07324978 0.010837227 -0.049983617 0.05155057 -0.009915676 0.058727667 -0.23603694 -0.05809101
-0.04553873 -0.08472931 -0.11541701 0.09478915 -0.12202794 -0.4241846 -0.19511068 -0.16215521
0.21062453 0.22118431 0.19087557 0.051307425 -0.16643886 0.01996632 0.037127133 0.026427807
-0.044489507 -0.23629455 -0.23552713 -0.17671676 -0.00089938164 0.1672567 0.13583511 -0.0131754605
0.10066934 0.12754837 -0.12673622 -0.1696694 -0.052221354 0.07860352 -0.071924366 -0.06820373
0.056890104 -0.2651626 0.01411462 0.07187097 0.1021473 -0.051817402 0.056628745 0.032140512
-0.07170767 0.0044933427 0.026280155 -0.064278185 -0.16027749 -0.051737197 -0.057997454 0.053531338
0.11026999 0.08166129 0.06088469 0.0548675 -0.14100915 -0.17123508 -0.00027282065 0.02179219
0.0067659165 0.06564921 -0.0022308524 -0.30801338 0.0026175207 0.08706759 0.0700813 -0.12240708
0.17407912 -0.012920342 -0.049311183 -0.058092628 0.034682997 -0.06843673 -0.28934592 -0.2239938
-0.08495582 -0.24258657 0.06412952 0.109048106 0.12304209 0.041048132 -0.011562639 0.089421436
0.05705432 -0.044311855 -0.06546658 -0.3473406 -0.20424706 -0.14252031 -0.15275659 0.15670615
0.2532646 -0.54505885 -0.0992758 0.108918205 0.06636701 0.14624827 0.1784556 0.13491681
0.088509806 -0.19121765 -0.078468665 -0.06482835 -0.29464778 -0.06441704 0.054176025 0.027095357
-0.050493542 -0.06815211 -0.0507531 0.015536167 -0.048710518 -0.07948256 0.023990048 -0.1179724
-0.093087405 0.025514517 -0.0077782283 0.017075004 0.05656911 -0.08813149 -0.05829799 -0.046547167
0.100424275 -0.07749807 -0.36502066 -0.23453176 -0.27811962 -0.109294705 0.18115664 0.20017898
-0.028914006 -0.51697284 0.02287371 0.024135567 0.06378051 -0.025732726 -0.039334327 -0.017429247
-0.1309398 -0.19679129 0.11255278 0.05075406 -0.2549212 -0.10786921 0.032309502 -0.04110037
-0.04293887 -0.02510016 0.010399017 -0.01793301 -0.05250773 -0.04124393 -0.041911073 -0.00522064
-0.07166785 -0.0663063 -0.38684067 -0.0104656005 0.18427534 0.2115055 0.081571005 -0.019219723
-0.17510052 0.0014363097 -0.149158 -0.09394811 0.23593867 -0.16918933 0.033428203 -0.044922013
-0.09059553 -0.11164357 0.013495742 -0.019847585 -0.008093691 0.04427818 0.014653668 -0.01887632
00000000: 4936 78be 13de 4fbe 54d0 be3c 01f3 9c3d
00000010: 8934 cd3c f078 1dbd ee5c 903b d70a 41bd
00000020: cb04 32be 0d28 c9bc ba73 d53d 6dca ccbe
00000030: 81fd 1ebf ac73 893d 91ec e1bd c942 b9bd
00000040: c745 1bba 342f 933d 5213 1fbb d51c 02be
00000050: cbe3 16bd 0f89 83bd 23ca c3be 36b8 e23d
00000060: 1b79 143e 8a13 1c3d abd4 06bd d74e eebd
00000070: 3c51 54bd 46d8 653c b118 a43c 8503 093d
00000080: 15f4 213d 760b adbb f11c 26bd 5354 2bbe
00000090: bc19 92bd 5d9f ae3d f3ab 753d 93a5 8cbe
000000a0: db98 873d c722 4f3e 49e2 633e 5380 463d
000000b0: 61c5 9dbd 8574 7cbd 5724 813d 64a9 3dbe
000000c0: 99b1 ae3d 6950 683e 23c9 40be 0137 74bd
000000d0: 5ca1 3fbe 4aa3 363d 6062 d43c ca9e bcbc
000000e0: 44d4 61bc bf11 51bc d607 0bbd 51dc 8cbd
000000f0: 553b 0a3b 0bb5 4e3d 74af 12be 8439 cdbe
00000100: 9495 92be e66d 90bd b3ca 40bd c1ca 41bc
00000110: e67f 9cbc 58d0 88bd 0f19 84bc 62c1 bdbc
00000120: fb03 963d a08e 313c 9fbb 4cbd b126 533d
00000130: 5c75 22bc 6c8c 703d abb3 71be d7f0 6dbd
00000140: d286 3abd 8f86 adbd c15f ecbd d020 c23d
00000150: c9e9 f9bd b92e d9be 18cb 47be 040c 26be
00000160: f5ad 573e 247e 623e e374 433e bc27 523d
00000170: f36e 2abe 6890 a33c 9f12 183d 217f d83c
00000180: a13a 36bd 33f7 71be 062e 71be 3df5 34be
00000190: 7bc4 6bba 5745 2b3e 5c18 0b3e e3dd 57bc
000001a0: ba2b ce3d 0a9c 023e 24c7 01be d1bd 2dbe
000001b0: 0fe6 55bd e2fa a03d 154d 93bd 66ae 8bbd
000001c0: 9905 693d 64c3 87be 0241 673c 1631 933d
000001d0: 9b32 d13d 7c3e 54bd 8bf3 673d c5a5 033d
000001e0: 79db 92bd e43c 933b 7b49 d73c 48a4 83bd
000001f0: c81f 24be 62ea 53bd bd8e 6dbd ad43 5b3d
00000200: 3cd5 e13d 093e a73d 3a62 793d bebc 603d
00000210: b464 10be 4058 2fbe 5e09 8fb9 8985 b23c
00000220: 9fb4 dd3b 1873 863d 7e33 12bb eeb3 9dbe
00000230: b68a 2b3b 7e50 b23d c986 8f3d 90b0 fabd
00000240: cc41 323e d8af 53bc 86fa 49bd 89f2 6dbd
00000250: c20f 0e3d 8e28 8cbd 2625 94be a15e 65be
00000260: 51fd adbd 9d68 78be 5656 833d 9d54 df3d
00000270: 7efd fb3d 1622 283d 3971 3dbc 9622 b73d
00000280: cab1 693d 5980 35bd 5813 86bd a1d6 b1be
00000290: 2426 51be d8f0 11be 396c 1cbe 9477 203e
000002a0: e6ab 813e fa88 0bbf 1c51 cbbd 8210 df3d
000002b0: 6deb 873d 1bc2 153e 11bd 363e a227 0a3e
000002c0: a144 b53d 8fce 43be 2eb4 a0bd bac4 84bd
000002d0: 13dc 96be 15ed 83bd aee7 5d3d 15f7 dd3c
000002e0: 51d2 4ebd 5593 8bbd 7ce2 4fbd 688b 7e3c
000002f0: ae84 47bd c1c7 a2bd c786 c43c 839b f1bd
00000300: 9ca4 bebd d203 d13c 82e0 febb e1e0 8b3c
00000310: 03b5 673d 487e b4bd e0c9 6ebd 3ea8 3ebd
00000320: 3eab cd3d 4fb7 9ebd fde3 babe 1829 70be
00000330: b265 8ebe e7d5 dfbd 2081 393e b8fb 4c3e
00000340: 11dd ecbc 5558 04bf a661 bb3c f4b7 c53c
00000350: 5b9f 823d 70cd d2bc 081d 21bd c8c7 8ebc
00000360: 1515 06be a883 49be 1282 e63d 7de3 4f3d
00000370: 0885 82be 88ea dcbd f856 043d dd58 28bd
00000380: abe0 2fbd da9e cdbc a360 2a3c 3fe8 92bc
00000390: 5812 57bd 65ef 28bd f2aa 2bbd e711 abbb
000003a0: 98c6 92bd 99cb 87bd fb0f c6be e977 2bbc
000003b0: adb2 3c3e e694 583e b30e a73d ae72 9dbc
000003c0: 8d4d 33be 8e42 bc3a e0bc 18be de67 c0bd
000003d0: e899 713e f83f 2dbe 03ec 083d 2500 38bd
000003e0: 268a b9bd 62a5 e4bd 3f1d 5d3c 6797 a2bc
000003f0: 679b 04bc 095d 353d f015 703c 83a2 9abc

fc1.bias f4 [128]
-0.024972692 0.036853693 -0.022945678 -0.048887864 0.124507315 -0.044325884 0.03605553 -0.017998423
0.005217744 -0.060661897 0.014064463 0.019570561 0.009282627 -0.08747833 -0.076188594 0.02953088
0.09000319 -0.003167125 -0.11028931 -0.05859335 -0.05448621 -0.01978897 0.070780486 0.118865535
0.02154263 -0.060880538 0.01117478 -0.024050513 0.06130995 -0.08652394 -0.06250466 0.042716596
-0.037109137 0.048874438 0.060232136 -0.081937484 0.08825044 -0.04853003 -0.105861925 -0.07969366
0.08872395 0.025091795 0.07949639 -0.063874744 0.08419053 0.03274701 -0.07955891 0.09878207
0.038321707 0.14583541 0.024516553 0.017435698 0.09753906 -0.04489198 0.0041441517 -0.022221087
-0.042500377 -0.04165075 0.043801203 -0.0639718 0.0055869403 -0.03701002 -0.060210444 0.015466821
-0.046843495 -0.04609415 -0.021806749 -0.11450958 0.03769904 0.00931565 0.09504523 -0.05319303
0.026124747 -0.08050395 0.017294616 -0.0249097 0.07768948 -0.07358411 0.07420746 -0.014461924
-0.036761507 -0.10325382 -0.085683964 0.027437324 -0.00080238306 -0.08309773 -0.04546391 -0.02734919
0.1310662 -0.038526677 0.039921727 0.01895449 0.049966 -0.09526159 0.083114356 0.03802226
-0.011343366 0.10974546 -0.024799027 0.015569707 -0.11883178 -0.051640876 0.012255801 0.08389685
-0.065815195 0.08205663 0.10888668 0.014258251 0.028034477 0.010958812 0.07951377 0.04711804
0.10720703 0.10029821 -0.0024962318 0.10030016 -0.044081997 -0.0792438 -0.0027665251 -0.008629252
0.042780243 -0.017162176 -0.106414534 -0.064968474 -0.0053425096 -0.029186687 0.11504885 0.1451783
00000000: 8893 ccbc e6f3 163d 93f8 bbbc a43e 48bd
00000010: b1fd fe3d 0f8f 35bd f7ae 133d 6e71 93bc
00000020: 9cf9 aa3b 9c78 78bd a26e 663c 7152 a03c
00000030: 2916 183c d727 b3bd c408 9cbd beea f13c
00000040: 9853 b83d 8a8f 4fbb 5ddf e1bd 95ff 6fbd
00000050: ef2c 5fbd 7a1c a2bc 5cf5 903d c66f f33d
00000060: 2b7a b03c df5d 79bd 6d16 373c 9505 c5bc
00000070: 2420 7b3d 7733 b1bd 7102 80bd 99f7 2e3d
00000080: c0ff 17bd 9030 483d f9b5 763d d7ce a7bd
00000090: a6bc b43d 6dc7 46bd 23ce d8bd 6e36 a3bd
000000a0: e7b4 b53d 4f8d cd3c 01cf a23d c3d0 82bd
000000b0: 166c ac3d bb21 063d c8ef a2bd 414e ca3d
000000c0: 39f7 1c3d e155 153e f0d6 c83c 4fd5 8e3c
000000d0: 8fc2 c73d a7e0 37bd aacb 873b ff08 b6bc
000000e0: e014 2ebd fa99 2abd e468 333d a603 83bd
000000f0: a712 b73b d297 17bd 3a9f 76bd 8d68 7d3c
00000100: f7de 3fbd 38cd 3cbd 11a4 b2bc 0084 eabd
00000110: 4f6a 1a3d aba0 183c 13a7 c23d efe0 59bd
00000120: 9103 d63c 41df a4bd 70ad 8d3c 6d0f ccbc
00000130: a91b 9f3d 44b3 96bd 15fa 973d b5f1 6cbc
00000140: 3c93 16bd bd76 d3bd 137b afbd 3dc4 e03c
00000150: 0457 52ba 252f aabd 5d38 3abd 690b e0bc
00000160: 3836 063e 26ce 1dbd f784 233d 7246 9b3c
00000170: 26a9 4c3d 8218 c3bd dc37 aa3d 3bbd 1b3d
00000180: 86d9 39bc 3ac2 e03d 5427 cbbc 1618 7f3c
00000190: 145e f3bd 6285 53bd 8ecc 483c 1dd2 ab3d
000001a0: 1eca 86bd 4e0d a83d fbff de3d 709b 693c
000001b0: 8fa8 e53c 978c 333c 1ed8 a23d d9fe 403d
000001c0: 5c8f db3d 2669 cd3d d297 23bb 2c6a cd3d
000001d0: 538f 34bd 934a a2bd 974e 35bb b561 0dbc
000001e0: 563a 2f3d b197 8cbc ddef d9bd 310e 85bd
000001f0: 3810 afbb eb18 efbc bb9e eb3d 9fa9 143e

fc2.weight f4 [3, 128]
-0.124718286 0.017166374 -0.07486633 0.020508593 0.09748492 -0.027382392 0.10509465 -0.14202376
-0.033998903 -0.082740575 0.08248465 -0.036619574 0.025099078 -0.1473606 -0.10026398 -0.004465796
0.12306726 0.013621265 -0.17664976 0.06978449 0.044415064 0.04135793 0.13260859 0.09824614
0.13213445 -0.16720593 -0.11797374 -0.044652563 0.09976755 -0.06616113 -0.19205672 0.064171806
-0.031902973 0.041290235 0.015929207 -0.070596665 0.2215179 -0.019883748 -0.04099662 -0.15976441
0.11972899 0.17802697 0.12420524 -0.058336444 0.050793283 0.080916725 -0.14609487 0.044400856
-0.043109205 0.13972084 0.054313213 -0.00956312 0.12145041 -0.06137823 -0.082631215 -0.10791746
-0.0020207027 0.05206525 0.060481902 -0.040311445 0.0338995 -0.062233426 -0.032742813 -0.011313442
-0.02504251 -0.08949059 0.009411746 -0.010586325 -0.06410945 0.06649977 -0.17512913 -0.13646623
0.037228044 -0.09989199 -0.050100252 -0.045404784 0.17070527 -0.10642214 0.08722051 -0.07551306
-0.20406723 -0.14675282 0.02955517 -0.058363836 -0.0022957402 -0.12385331 -0.07329635 -0.05965609
0.093124695 -0.049998518 0.10929697 -0.043064427 0.008860756 -0.092888944 0.10153844 -0.059712563
0.033012863 0.15208489 -0.12049376 -0.024484742 -0.1940645 -0.097835414 -0.01916934 0.16076784
-0.059182286 0.13042594 0.1387479 -0.0036555184 -0.018458331 0.06400576 -0.010879552 0.102920696
0.083730526 0.025162123 0.057912678 0.1401421 -0.05700224 0.023967596 0.04039796 -0.055709008
0.08314346 0.045897283 -0.20657495 0.058587514 -0.16134949 -0.0028271168 0.11685111 0.097318135
0.17696273 -0.080071986 -0.009315397 0.04665774 -0.17261162 0.013589429 -0.17760965 0.17058411
-0.013751846 -0.17537217 0.06538377 0.047861323 -0.13945913 0.10276293 0.072299875 0.04410629
-0.20476018 0.017445575 0.11710286 -0.14020698 0.054755006 0.041457992 -0.16536942 -0.122874774
0.0077809384 0.14110972 -0.08789735 -0.13549517 -0.16211122 -0.10486955 0.21631683 -0.048322726
-0.10737421 0.07877347 0.043676455 -0.18002398 -0.15724874 -0.016198214 0.032026686 0.14271796
-0.16466749 -0.18556264 -0.11128407 -0.11957921 -0.2571095 0.08700758 -0.07663097 -0.26815218
-0.18013887 -0.20021555 0.04897143 -0.011562497 -0.15292203 -0.07075825 -0.027248783 0.16084008
0.004272154 0.02974091 0.10096435 -0.046874918 0.058006626 0.080273755 0.029899113 -0.05471915
0.095505774 -0.075540125 0.057225686 -0.04634505 0.08118802 0.069042034 0.06806241 -0.073744275
0.054122142 0.040932074 -0.06471441 -0.20120265 -0.14390202 0.054405022 0.09766261 -0.05102106
0.12329166 0.1369854 -0.015783122 0.016893152 0.025621934 0.1773334 -0.2674771 0.037393335
-0.20781535 -0.037696198 -0.14082591 0.0111310715 -0.2250547 0.086123444 -0.086137846 0.00024924852
0.060145922 -0.071866535 0.14233062 0.06565726 0.084296264 -0.0555375 0.030982908 -0.0735734
-0.0924548 -0.142782 -0.18199551 -0.010770469 0.031072624 0.06582392 -0.011908497 -0.006965435
-0.20375192 -0.17905408 -0.07194666 -0.055404585 0.13088155 -0.17709906 0.076626666 -0.079006605
-0.0063569606 0.072512545 0.104662254 0.030148596 -0.050530445 -0.12264112 -0.24031706 -0.17829297
00000000: 4d6c ffbd 7fa0 8c3c 8553 99bd a301 a83c
00000010: 2ca6 c73d 0a51 e0bc dd3b d73d ad6e 11be
00000020: 6f42 0bbd e473 a9bd b6ed a83d 68fe 15bd
00000030: 959c cd3c b2e5 16be 3457 cdbd d055 92bb
00000040: b00a fc3d ba2b 5f3c ade3 34be 2ceb 8e3d
00000050: 92ec 353d ef66 293d 8cca 073e 4635 c93d
00000060: 414e 073e 0838 2bbe 379c f1bd 9be5 36bd
00000070: ee52 cc3d 7d7f 87bd 84aa 44be 826c 833d
00000080: b1ac 02bd f31f 293d f87d 823c fc94 90bd
00000090: 97d5 623e 3ee3 a2bc 12ec 27bd 4899 23be
000000a0: 7934 f53d b44c 363e 515f fe3d 32f2 6ebd
000000b0: 9e0c 503d abb7 a53d e599 15be acdd 353d
000000c0: 4793 30bd fb12 0f3e 8877 5e3d a2ae 1cbc
000000d0: feba f83d bd67 7bbd 8e3a a9bd d403 ddbd
000000e0: c46d 04bb 5f42 553d dfbb 773d 9d1d 25bd
000000f0: 34da 0a3d 7ae8 7ebd 541d 06bd 045c 39bc
00000100: f325 cdbc d846 b7bd b933 1a3c 4472 2dbc
00000110: d14b 83bd 0831 883d 0d55 33be cebd 0bbe
00000120: 6f7c 183d 2c94 ccbd ec35 4dbd 5efa 39bd
00000130: 5dcd 2e3e daf3 d9bd aba0 b23d 97a6 9abd
00000140: 00f7 50be 5f46 16be af1d f23c eb0e 6fbd
00000150: 2174 16bb cea6 fdbd 661c 96bd f259 74bd
00000160: 29b8 be3d 3fcb 4cbd 17d7 df3d 5364 30bd
00000170: b42c 113c 8f3c bebd 63f3 cf3d 2995 74bd
00000180: 7f38 073d 24bc 1b3e 6fc5 f6bd 3a94 c8bc
00000190: d8b8 46be ef5d c8bd 0509 9dbc 53a0 243e
000001a0: 2069 72bd 618e 053e ee13 0e3e 6c91 6fbb
000001b0: ed35 97bc 7415 833d 2640 32bc 16c8 d23d
000001c0: e97a ab3d cc20 ce3c d835 6d3d 6981 0f3e
000001d0: 2e7b 69bd b157 c43c 5578 253d 212f 64bd
000001e0: 1e47 aa3d cafe 3b3d 6288 53be 76f9 6f3d
000001f0: cd38 25be 2647 39bb a24f ef3d bb4e c73d
00000200: b835 353e c8fc a3bd 9b9f 18bc 301c 3f3d
00000210: 1ac1 30be 32a6 5e3c 4edf 35be 9aad 2e3e
00000220: 6c4f 61bc c394 33be ede7 853d 3c0a 443d
00000230: 60ce 0ebe 5f75 d23d f511 943d cca8 343d
00000240: a7ac 51be 06ea 8e3c a0d3 ef3d 6b92 0fbe
00000250: c946 603d dbcf 293d 9a56 29be c5a5 fbbd
00000260: 3ef7 fe3b 117f 103e 8703 b4bd 3fbf 0abe
00000270: 7c00 26be d9c5 d6bd 2982 5d3e 0dee 45bd
00000280: 03e7 dbbd fc53 a13d 15e6 323d 3558 38be
00000290: d005 21be 1eb2 84bc 6a2e 033d a824 123e
000002a0: 989e 28be 2204 3ebe e7e8 e3bd f2e5 f4bd
000002b0: dba3 83be 0831 b23d b3f0 9cbd 3e4b 89be
000002c0: 5376 38be 4e05 4dbe 4496 483d a170 3dbc
000002d0: 9897 1cbe b4e9 90bd d738 dfbc 43b3 243e
000002e0: 6dfd 8b3b 35a3 f33c 66c6 ce3d eaff 3fbd
000002f0: 5b98 6d3d 9166 a43d fcee f43c 3021 60bd
00000300: 8898 c33d c8b4 9abd 7b65 6a3d 4fd4 3dbd
00000310: e845 a63d e965 8d3d 4e64 8b3d 3d07 97bd
00000320: 2eaf 5d3d 64a8 273d fd88 84bd 1108 4ebe
00000330: 0d5b 13be cdd7 5e3d 5603 c83d 76fb 50bd
00000340: 5680 fc3d e745 0c3e 9b4b 81bc 8263 8a3c
00000350: 17e5 d13c e396 353e c2f2 88be c129 193d
00000360: 8ccd 54be 5467 1abd ab34 10be 195f 363c
00000370: bd74 66be 7d61 b03d 0a69 b0bd 92ad 8239
00000380: 925b 763d c32e 93bd 1ebf 113e 5077 863d
00000390: 85a3 ac3d 4a7b 63bd decf fd3c a7ad 96bd
000003a0: f158 bdbd 7235 12be 085d 3abe 9f76 30bc
000003b0: 048c fe3c b1ce 863d db1b 43bc 4e3e e4bb
000003c0: 58a4 50be f459 37be c558 93bd ebef 62bd
000003d0: d005 063e 7559 35be 71ee 9c3d 37ce a1bd
000003e0: 0d4e d0bb 7581 943d 2a59 d63d 30fa f63c
000003f0: 03f9 4ebd 442b fbbd ad15 76be 6f92 36be

fc2.bias f4 [3]
0.048347883 0.05327429 -0.11038419
00000000: 6e08 463d 2436 5a3d 1b11 e2bd
